hw3/data/dqn_Pong_double_dqn_Pong-ram-v0_12-11-2018_17-43-32/0/model.pkl (torch_old, 306406 bytes, 8 tensors)

weight f4 [256, 128]
00000000: ad46 eabd b0a3 b53d 821c 8c3c ce81 e6bd
00000010: 92f9 373c 259f e1bc 50e1 493c 6998 d83c
00000020: 6fc7 93bd 76ce febd 1184 993d 077d 0c3d
00000030: 6386 65bd e73f d7bd 2e95 9cbd f7bd 023d
00000040: f1e7 8b3d 1c71 c53d a598 b53d 889c aabd
00000050: 3d3d 84bd 2708 6ebb 40f5 f73c b109 bdbd
00000060: 0dfe 9cbd b605 fabd 74ce b73d e48b 873d
00000070: 5020 36bd 3660 ee3a d7ff 5dbc 5bee 11bb
00000080: 8c4b 963d e705 88bd 0315 ab3d 910b 1bbd
00000090: 1844 5c3d 8abe 473d a38a 983d 26b2 a23d
000000a0: 05a3 dabc bc31 d9bc 449d f1bc f761 95bb
000000b0: 0acc a8bc 3a91 f4bc a3a7 df3d efbe 543d
000000c0: a7a2 d73c beaf babd 0364 863d b9b9 bcbd
000000d0: 8fbe 6ebd af53 88bd aa89 95bc ace5 653d
000000e0: a50a 8cbc 326a d3bd 1716 103d 975e a83d
000000f0: e61a 74bb c124 803d 0fa0 bd3d 672a 8dbd
00000100: cc0d efbd 46f3 7f3d 4895 83bd d46f 133d
00000110: c91b e3bd 1412 bc3d 925e f13d 34d6 00bd
00000120: 3416 623d f2db f0bd c6b1 c63c 52e6 cabd
00000130: a44a cb3d 16ab 843d 1863 8f3d 9063 72bd
00000140: 4c74 a6bd 3823 e13c bcf4 8c3d 448f 243d
00000150: c81b a5bc 0c0a 8f3d 96f7 9a3d 3862 febc
00000160: 2cee 3e3d 34a3 443d 20bc 8dbb d872 59bd
00000170: 42f1 a4bd 00c7 873a 72b4 b0bd 04bc 7e3d
00000180: a4e0 9fbd 68d3 443d a4b9 9c3d a03c 94bc
00000190: 3a57 ee3d 649e ecbd 649c 3dbd 2e5a cc3d
000001a0: 9ca4 be3d ec69 5cbd 0083 cfba 688e 6f3d
000001b0: 1220 db3d a0ba 933d c61a ddbd d08c 9bbd
000001c0: 8826 883d a46a 98bd 344c 93bd 542b aebd
000001d0: 086d 76bd 2a02 8b3d e8ed febd 18a5 883c
000001e0: e825 893c 64f8 f5bd 14fb ddbd bf72 133d
000001f0: 045c 02be 12dd fdbd 2a01 7dbd b2c0 4c3c
00000200: 8033 d73a 20e4 70bc 20c2 1e3c 885f f0bc
00000210: ceec e2bd 6804 903d d49c cabd 3006 b93d
00000220: 0011 463b 0451 303d a206 92bd f456 c1bd
00000230: 80d8 dbbb a077 01bd bc25 fdbd c098 f53b
00000240: 8440 97bd 4cfb 603d 6889 a23c 60a8 83bb
00000250: 9a22 953d 1679 90bd 6878 fcbc d876 43bd
00000260: d869 b9bc f01d d7bd 54eb d53d b09a 38bd
00000270: 82bd c1bd 98c8 c03d f421 fbbd dc19 9ebd
00000280: 88a5 f3bc 52fe dcbd e8ea d83d a814 cf3d
00000290: ac70 e43d a095 a0bd b03b ec3d b803 5f3d
000002a0: 0050 3db9 44cb f13d c2d7 bf3d 1081 45bc
000002b0: 3e87 a9bd 202b c63c 3a8a f2bd 00cf e2ba
000002c0: 267b d1bd 14c5 41bd 9831 4ebd 40f3 93bd
000002d0: e228 8d3d 3614 a43d dc34 ad3d 202b e63d
000002e0: 3ed2 97bd 2214 b23d 6437 8ebd 287b ffbd
000002f0: c0e2 0d3d 0458 733d 9e93 c8bd 0088 aabd
00000300: 846a 463d a857 ad3d b491 18bd 405f b4bb
00000310: 64e9 cbbd ee34 933d acf9 b53d 3635 a93d
00000320: 00c2 5fbb e813 8d3d 3018 c4bc 009d 80bb
00000330: 582f af3c 9cbe 243d 40f7 8b3c 7807 16bd
00000340: 241f 92bd ded0 af3d b6d8 aebd 00ee 253a
00000350: 4cfd 02bd 64ec ee3d 78cc 933d 28de 313d
00000360: 703c d53c 060d d4bd e08e 62bd fc9f c13d
00000370: 4062 533b 901e 893c b25a a23d 5070 7bbd
00000380: 28bb 15bd f8ea 9bbc 708c 90bc 7832 5c3d
00000390: 10e5 08bd b06b 2f3d a0ac 5a3d e85a d3bd
000003a0: a8c0 48bd 48b9 1a3d 289a 3d3d 6c27 15bd
000003b0: 5c02 b1bd 007e dc3b 5caf 783d bc44 acbd
000003c0: 0ab9 c33d 20fb 27bc d453 d43d 5477 ab3d
000003d0: ec56 d3bd 00f8 45ba ee2e 80bd 9e6f ffbd
000003e0: 5009 693c 745b f1bd 0256 8fbd 8ced 903d
000003f0: 0cba c33d 400c 26bd 1cba ffbd 102f 6abc
-0.114392616 0.088691115 0.017103437 -0.11255227 0.011228936 -0.027541706 0.012321785 0.026439862
-0.07215773 -0.12441723 0.07495893 0.034298923 -0.056036364 -0.10510235 -0.07645641 0.031919446
0.06831349 0.096407145 0.08867005 -0.08330637 -0.06456993 -0.0036320777 0.030268312 -0.09230364
-0.07665644 -0.122081205 0.08974925 0.06618479 -0.04446441 0.0018186632 -0.0135497665 -0.0022267315
0.07338628 -0.06641751 0.08353617 -0.037852827 0.053775877 0.048765697 0.07448318 0.07944135
-0.026689062 -0.026512973 -0.029493935 -0.0045587975 -0.020605106 -0.029854406 0.10920646 0.0519399
0.026322676 -0.091155514 0.065620445 -0.09215111 -0.0582872 -0.066565864 -0.01825412 0.056127235
-0.01709492 -0.103229895 0.035177317 0.082211666 -0.0037247478 0.0625701 0.092590444 -0.06892853
-0.116725534 0.062487863 -0.064249575 0.03599532 -0.11089284 0.09183136 0.11785616 -0.03145428
0.055196956 -0.11760701 0.02425469 -0.09907211 0.09926346 0.064779446 0.070013225 -0.05917698
-0.081276506 0.027482614 0.06882617 0.04017569 -0.020154849 0.06984338 0.075667545 -0.031052694
0.046613857 0.048007205 -0.0043254048 -0.05308804 -0.08053829 0.0010358989 -0.08628167 0.062191024
-0.07806519 0.048053175 0.07652596 -0.018095315 0.11637731 -0.11553648 -0.046291724 0.09978138
0.093087405 -0.053811952 -0.0015831888 0.05848542 0.10699476 0.0721333 -0.10796122 -0.07595217
0.06647974 -0.07442215 -0.07192269 -0.08504358 -0.060162574 0.06787522 -0.12447721 0.016680285
0.016741708 -0.120102674 -0.10838905 0.035998102 -0.12730414 -0.123956814 -0.06176869 0.012497114
0.0016418546 -0.014702827 0.009689838 -0.029342428 -0.11080323 0.070320904 -0.09893194 0.09034383
0.0030222535 0.043046013 -0.07130171 -0.09440413 -0.0067091584 -0.031608224 -0.12360713 0.007495016
-0.07385352 0.054927155 0.019840911 -0.0040178746 0.0728199 -0.07054345 -0.030819133 -0.04772076
-0.022633478 -0.10503757 0.10445276 -0.045069396 -0.09459974 0.0941326 -0.122623354 -0.07719776
-0.029742017 -0.10790695 0.1059168 0.10111362 0.11154303 -0.07841039 0.11534822 0.054446906
-0.00018054247 0.11806348 0.093673244 -0.012054697 -0.082777485 0.024190485 -0.11842771 -0.0017304122
-0.10228567 -0.04730709 -0.050340265 -0.07224131 0.068925634 0.080116674 0.08457348 0.11238694
-0.074131474 0.08695246 -0.06944159 -0.12474662 0.034640074 0.05941011 -0.09793781 -0.08326721
0.048441425 0.08463985 -0.03724833 -0.0055045187 -0.09956625 0.0718783 0.08885512 0.08262102
-0.0034142733 0.068885624 -0.023937315 -0.003924966 0.02138488 0.04022084 0.017085671 -0.036628217
-0.07134846 0.0858476 -0.08537428 0.0006329715 -0.031979844 0.11666182 0.07216734 0.043424755
0.026029795 -0.103540465 -0.055312037 0.09454343 0.0032254606 0.016738206 0.07927455 -0.061386406
-0.03655544 -0.01903294 -0.01764509 0.05375907 -0.033421576 0.04282731 0.053387284 -0.10320073
-0.049011856 0.037774354 0.046289593 -0.03641455 -0.08643028 0.0067288876 0.06071411 -0.084115475
0.09556778 -0.010252744 0.103675514 0.083723694 -0.103193134 -0.00075519085 -0.06258951 -0.12472461
0.014223412 -0.117850214 -0.069988266 0.070765585 0.0955697 -0.040539026 -0.124866694 -0.014293447

bias f4 [256]
00000000: c64e bbbb 0000 0000 b531 343a 68c8 903b
00000010: 1d71 5e3a ea65 ccbb 2ef5 f5bb 4604 65bb
00000020: 6ea0 edbb aa65 5abc 0000 0000 e77d 4e3b
00000030: 17bd 22bc 0000 0000 0000 0000 ea69 f0bb
00000040: e130 8fbb 797e dabb a96f b8b9 0000 0000
00000050: 0000 0000 6a57 ebbb ffe1 23bc a667 0bbc
00000060: 062e cbba 34af dbbb a363 95bb cd86 dabb
00000070: a6dc 25bb 0000 0000 2538 1db9 f1a0 30b8
00000080: 0000 0000 b6d6 27bb b1f1 c7bb 28e8 d0bb
00000090: ca8c 9bbb 0000 0000 ead8 2fbc 0000 0000
000000a0: 0000 0000 0000 0000 0000 0000 e571 2ab9
000000b0: 9934 63bb 13ae 11bc 0000 0000 b2c1 cdbb
000000c0: 5274 cc3a 42db 37bc 9cf1 cbbb 5c2a d8ba
000000d0: b254 39bc dce1 1ebc eeb7 04bc b91e 50bb
000000e0: 345d 5abc 0000 0000 31fc 87bb 49d2 1cba
000000f0: 9cc8 ba3a a007 1f3b 0000 0000 d4ed c33a
00000100: 0000 0000 aeaa 4bbb 0000 0000 0341 98bc
00000110: 3084 81bc 0000 0000 fada 7bbb 0000 0000
00000120: 0000 0000 5c7c f6ba b994 8ebb 0000 0000
00000130: 0000 0000 8ca7 853b 8e78 28bc 0000 0000
00000140: 33d0 a8bb 0000 0000 dc85 43bc 636d ecbb
00000150: 1dfb 22bc 0000 0000 0000 0000 5561 febb
00000160: d814 f7bb 0000 0000 df05 90ba 39cc cc3a
00000170: 0490 73bb cc69 203b 257f 93bb 955d b4b6
00000180: 0000 0000 0000 0000 edf9 a0bb 0000 0000
00000190: 137b afbb 3cc0 0fbc c329 0ebc 0000 0000
000001a0: 0000 0000 e701 dfbb b927 fdbb e7db 363c
000001b0: d690 84bc a52c b2bb 0000 0000 bfd3 3abb
000001c0: f154 acba b4bf bdbb 72e9 783b 6797 42bc
000001d0: 425f 72bc 5d09 8cbb 0000 0000 6323 77bb
000001e0: a66b 9bbb 00e1 7bb9 0000 0000 6868 e9bb
000001f0: 0f0c 633a 0000 0000 6d84 bfba a822 a9ba
00000200: be58 24bc df3b 0abb de64 083b 1e3c 523b
00000210: c0ff e33a 2a89 283a b89d 23bb 78d2 aabb
00000220: d2c3 b2ba 22e9 62bb 0000 0000 37a4 993a
00000230: 0e07 d7bb 0000 0000 1732 9cbc 774f 0dbc
00000240: 09ee 09bc f5b6 433b 92be 04ba 2cc9 63bb
00000250: 6907 3abb b6d0 1bbc d07a 55bc 0000 0000
00000260: 3f79 28bc 0000 0000 5ad0 9fba 6406 1fbb
00000270: 0000 0000 4fb5 c6bb 0000 0000 0000 0000
00000280: e4d8 d13b 2db6 ecbb 57ed 38bb 3203 22bb
00000290: 0000 0000 d85c dabb e0f2 ffbb 2de8 16bc
000002a0: 4aa1 a0ba bb44 20bc 0000 0000 0000 0000
000002b0: 0000 0000 0ded 533b 0000 0000 dc2f 27bb
000002c0: 1289 14ba 57ab ef3a 839c 2cbb 7031 7ebb
000002d0: 480c a6ba c842 04bc 0000 0000 df57 03bc
000002e0: 0000 0000 e66b 9839 a5a5 24bb b6b8 3a39
000002f0: 259b b9bb 0000 0000 0000 0000 0000 0000
00000300: a03c 2dbc b1d3 e238 e4d9 f13a 7083 04bb
00000310: 5e8a 35bb ccf2 26bb 0000 0000 1cd7 7b3a
00000320: 40f8 9abb c52f b4bb 4ef5 c5ba b20b 04bc
00000330: 9b8b 8fbb 0e03 42bb 55b3 173b f56f 123b
00000340: c7fd 3abb 0000 0000 bd08 3c3b b944 e3bb
00000350: d1ba 8a3b 2d5a 573a 0000 0000 f045 33bc
00000360: 679b 033a 2710 90bb a38e 34bc 210e b6bb
00000370: c6a3 dbbb 608b 91bb ac00 80b8 d4c2 81bc
00000380: 0187 94bb 0000 0000 7667 e7b9 0000 0000
00000390: b42f dd3a 9aab 0bbc 07a4 7dbb 0000 0000
000003a0: 0000 0000 4088 15bc efcd 7c3b c393 30bc
000003b0: 0000 0000 d655 8fbb ee45 ebbb 34b2 38bb
000003c0: 41f8 023a ef40 a7bb 76c3 1bbb 4e2e 8c3b
000003d0: f837 2fbc fef3 1fbc 0000 0000 2e6a b039
000003e0: 0000 0000 5623 68ba 057c debb 0000 0000
000003f0: 0000 0000 6b31 22bb 0a3c 3abb e507 c2ba
-0.0057161776 0.0 0.0006873862 0.0044184215 0.0008485483 -0.006237735 -0.0075060343 -0.0034945174
-0.0072517907 -0.013329903 0.0 0.003150815 -0.009932778 0.0 0.0 -0.0073368447
-0.0043698405 -0.0066679087 -0.00035178408 0.0 0.0 -0.0071820514 -0.010002612 -0.008508598
-0.0015501387 -0.0067042354 -0.0045589968 -0.0066689015 -0.0025308519 0.0 -0.00014993602 -4.211156e-05
0.0 -0.0025610155 -0.00610181 -0.0063753314 -0.004747008 0.0 -0.010732869 0.0
0.0 0.0 0.0 -0.00016254892 -0.0034668802 -0.0088916 0.0 -0.006279194
0.0015598631 -0.011221709 -0.0062238704 -0.0016492116 -0.011311697 -0.009697404 -0.008100493 -0.0031756593
-0.013327885 0.0 -0.0041499366 -0.00059822627 0.001425046 0.002426602 0.0 0.0014948198
0.0 -0.0031077075 0.0 -0.018585688 -0.015810102 0.0 -0.003843008 0.0
0.0 -0.0018805373 -0.004351225 0.0 0.0 0.004078811 -0.010282649 0.0
-0.0051517724 0.0 -0.01193377 -0.0072151884 -0.009947565 0.0 0.0 -0.0077630677
-0.0075403266 0.0 -0.0010988078 0.0015624828 -0.0037164697 0.0024477122 -0.004501241 -5.3753124e-06
0.0 0.0 -0.004912606 0.0 -0.0053552478 -0.00877386 -0.008676949 0.0
0.0 -0.0068056467 -0.0077256826 0.011160827 -0.016182344 -0.005437451 0.0 -0.0028507558
-0.0013147873 -0.005790675 0.003798094 -0.011876917 -0.014793219 -0.004273577 0.0 -0.00377103
-0.0047430573 -0.00024021044 0.0 -0.007123042 0.00086611597 0.0 -0.001461161 -0.0012904005
-0.010030923 -0.0021092815 0.0020812075 0.003207929 0.0017394945 0.00064291304 -0.0024965834 -0.005213078
-0.0013638681 -0.0034623821 0.0 0.0011721913 -0.0065621203 0.0 -0.019066853 -0.008624903
-0.008418568 0.002986369 -0.00050637976 -0.003475736 -0.0028385764 -0.00951021 -0.013029769 0.0
-0.010282814 0.0 -0.0012192831 -0.0024265284 0.0 -0.006064094 0.0 0.0
0.006404029 -0.0072238655 -0.0028217637 -0.0024721143 0.0 -0.0066639 -0.0078109354 -0.009210628
-0.0012255099 -0.009782012 0.0 0.0 0.0 0.0032337338 0.0 -0.0025510704
-0.0005666177 0.0018285316 -0.0026338405 -0.0038786791 -0.0012668455 -0.0080725625 0.0 -0.008016556
0.0 0.0002907209 -0.0025123146 0.00017807152 -0.0056642466 0.0 0.0 0.0
-0.010573536 0.000108159504 0.0018451777 -0.0020219944 -0.0027700881 -0.0025474308 0.0 0.0009606944
-0.0047293007 -0.0054988586 -0.0015103014 -0.008059429 -0.004380656 -0.0029603872 0.0023147662 0.0022344564
-0.002853261 0.0 0.0028691732 -0.0069356826 0.004233696 0.00082150364 0.0 -0.010941967
0.000502041 -0.0043964568 -0.011020335 -0.0055558835 -0.006702873 -0.0044416636 -6.103641e-05 -0.015839972
-0.0045326953 0.0 -0.00044136838 0.0 0.0016875179 -0.0085248 -0.0038702504 0.0
0.0 -0.009126723 0.0038574894 -0.010777417 0.0 -0.004374246 -0.007179967 -0.002818239
0.0004996099 -0.0051041762 -0.0023767627 0.004277981 -0.010694496 -0.009762762 0.0 0.00033648446
0.0 -0.0008855363 -0.0067896866 0.0 0.0 -0.0024748694 -0.0028417134 -0.0014803378

weight f4 [128, 256]
00000000: a9f6 9f3d 4c28 743d f1ac 37bb 8ac5 dbbd
00000010: 921f 783b 9372 c4bd 9ce2 e0bd 4ea2 efbd
00000020: 2522 dfbd 071f 993d b640 d1bd d777 a73b
00000030: ce13 a43d 88dc 2c3d ce72 f83d 97d3 873d
00000040: e398 823d 97db b6bb cc34 e23d 3806 32bd
00000050: 3088 b33c 7855 013e b677 7c3d 1ced e93d
00000060: b93b debb 9def 68bb d9b2 aa3d 0d4a 8f3d
00000070: cb38 2d3d a6bd 90bd fe18 f73d ce03 a1bd
00000080: 8014 bfbb 21e5 3bbd cf00 96bd 4647 d33d
00000090: 0141 913d 7c8b a13d 2c6e b8bd 6e13 fdbd
000000a0: 04c4 c93d dccb 9d3d a074 493c f5ac 0d3d
000000b0: 09be 513b 4a70 d33c 7806 bbbc 0302 a3bd
000000c0: bacd 893d db71 f6bd adb6 c43d 3397 8a3d
000000d0: 93a3 04bd fa24 b73d ecbb c0bd b7ba f43d
000000e0: 84e2 b8bd 4043 773b b73f 883d 26f8 a7bb
000000f0: b501 dbbd 9a84 9bbd e0db b2bb 1f2f 00bd
00000100: 4849 153d 5229 a7bd fcfb 9ebd 63c6 413d
00000110: 7496 d93d d8dc 92bc ec6e 3cbc 32b2 c03d
00000120: e8b4 763d 7c49 62bd 2937 a2bd 2c08 87bd
00000130: 448d 90bd 427c 99bb 18d7 d73c a444 703d
00000140: 05ca c83d 40b9 69bb c434 7dbd 80e9 b4bc
00000150: 353e 82bd d09a 9e3d 44cd f5bd 426d 03bd
00000160: 5103 5cbc b4e1 c0bd bffe 953d 74c2 11bd
00000170: 97ba 08bd c8f5 fa3b a056 e13d 56f4 35bb
00000180: 5884 c43c f8c4 803c 2d26 0f3d 8093 cbbd
00000190: 2f48 82bd 8078 233c 8c25 a83d 4c40 c43d
000001a0: e890 0f3d 244e 68bd 53a9 713d 0ae6 a33d
000001b0: cbcc cebd a26f babc c854 dfbd 9e17 c4bc
000001c0: ac17 6c3d 6399 fabc b2ee bf3d d1ec a13d
000001d0: 3b18 f03d c32b 953d b08d 453d 2bf1 143d
000001e0: 3fdb 61bd e35e 623d f800 d6bd 5ede a43d
000001f0: 54d6 d23d 26e7 b13d c5c3 cfbd 53f1 25bd
00000200: f4f8 d3bd 7f45 933c 2a4a b6bc 9b59 d0bd
00000210: a606 b9bd b0a0 36bd a7e1 8e3d 6a18 993c
00000220: 4ad0 41bc ef19 cc3d 4851 553d 3ec1 853d
00000230: ba19 15bd e0f7 2abc 7f0f 2c3d 866f dabd
00000240: 08eb 90bc d0e5 863d 288e 023d 6dcb 203c
00000250: cf5f 06bd de27 ea3d 8562 e1bd c6aa dbbd
00000260: 7c68 593b 7c7f 52bd 1cbc 693d 18a0 8ebc
00000270: d635 97bd d502 73bd 00ff fa3c ccbc c73d
00000280: 59e0 a93d 49df e43d ed0f f9bd 2e88 6c3d
00000290: ac8f 18bd ed2e 1a3d 3475 eebd b466 d0bd
000002a0: d6b3 e4bc 8200 0b3d ee4b a1bd 0c8b efbd
000002b0: a4e4 4c3d c4e6 963d b0c5 f8bc e454 3bbd
000002c0: 26a9 00bd 7636 093d 8145 bdbd 829a 2e3d
000002d0: 3417 cabd 89c3 0e3d 88ba abbd e983 9dbd
000002e0: 6c4a c4bd 5fb8 d0bd 7a66 e33b a611 cdbd
000002f0: c650 d33c 56ac cdbd f068 f33c f2d1 eb3d
00000300: 6fd1 7c3d da28 afbb d4c1 f9bd f359 f23d
00000310: b1ca da3d 95bf da3d 505b 4b3d cc89 3f3d
00000320: a189 4dbd 7745 afbd 4e0e 14bd 196d 24bd
00000330: 8bc9 a33c d41b 5a3d 4efc 40bd c039 d4bd
00000340: d508 96bd 1ec6 cebd 93d1 d2bd 6cb1 b43d
00000350: 6184 863d 6efc 65bc 0680 f33d 9ae8 9c3d
00000360: 07ad 9f3c 3f67 5b3d 9502 923b cd17 ef3c
00000370: 297a 9e3d 570e 00be 5ec9 d5bd 7a5a c9bd
00000380: b657 acbd 6a09 d3bd 33aa c13d d094 2bbd
00000390: 46b1 bd3d ef44 b6bd 9aa3 0dbd cec1 f7bd
000003a0: 8c0d 27bd 5da3 393d 1d15 2d3c d9f7 183d
000003b0: dc77 69bd 9ecf 4ebd 2512 94bd a341 11bd
000003c0: 59a7 e03a 0be2 e13d fd74 7e3d ef5c b9bd
000003d0: 2820 b1bc 0812 e3bd f065 cc3c 4fe1 b23d
000003e0: 005b 0e3c 230a ee3d 498d f3bd 601d 69bd
000003f0: 0472 b33d 2700 14bd 1ff8 5abd 8cc2 fe3d
0.078107186 0.059608743 -0.0028026665 -0.10731037 0.0037860614 -0.09592166 -0.10980722 -0.11700879
-0.108951844 0.07476621 -0.10217421 0.0051107216 0.0801159 0.042202502 0.12131272 0.066321544
0.06376817 -0.0055803764 0.110452265 -0.043462962 0.021915525 0.1263026 0.061637603 0.11422178
-0.006782022 -0.0035543211 0.08334894 0.06996546 0.04229049 -0.070674226 0.12065314 -0.07862054
-0.005831301 -0.04587281 -0.07324373 0.10316329 0.07092477 0.07887933 -0.090053886 -0.123572215
0.0985184 0.07704899 0.012295872 0.034588773 0.003200414 0.02581038 -0.022830233 -0.07959368
0.06728692 -0.12033435 0.09605155 0.0676712 -0.03238256 0.089425996 -0.09410843 0.119496755
-0.090275794 0.0037729293 0.06652778 -0.005126017 -0.10693685 -0.07593651 -0.00545834 -0.03129494
0.03644684 -0.08162178 -0.07762906 0.047308337 0.106244 -0.017927572 -0.011501055 0.09408988
0.06023112 -0.05524586 -0.07920677 -0.065933555 -0.07058194 -0.004684002 0.026347682 0.05865921
0.09804157 -0.0035663396 -0.0618179 -0.022083998 -0.06359521 0.07744372 -0.12002042 -0.03208662
-0.013428525 -0.094180495 0.073239796 -0.035585836 -0.03338107 0.007658694 0.110028505 -0.0027764044
0.023988888 0.015718922 0.034948517 -0.09940243 -0.06361424 0.00997746 0.082102865 0.09582576
0.035050303 -0.056715146 0.05899937 0.08002861 -0.10097655 -0.022758309 -0.109048426 -0.023937043
0.057639763 -0.030590719 0.093716994 0.07906497 0.117233716 0.072837375 0.048230827 0.03636281
-0.05514073 0.055266272 -0.104494035 0.08050226 0.10294786 0.08686666 -0.10144762 -0.040513348
-0.103502184 0.017977474 -0.022252161 -0.10173341 -0.09034471 -0.044586837 0.069766335 0.0186884
-0.011829445 0.09965884 0.05207947 0.06530999 -0.036401488 -0.010435075 0.042006966 -0.10665803
-0.017690197 0.06586802 0.031873852 0.0098141255 -0.032806214 0.11433385 -0.11005119 -0.10725932
0.003317385 -0.05139111 0.05706416 -0.017410323 -0.07383315 -0.059328873 0.030639172 0.09752807
0.08294744 0.11175401 -0.12161241 0.05774706 -0.03724639 0.03764241 -0.116434485 -0.10175839
-0.027917784 0.03393603 -0.078758106 -0.11696443 0.050022736 0.07368234 -0.030367702 -0.045735255
-0.031411313 0.033499204 -0.092417724 0.04262782 -0.09867707 0.034854446 -0.083851874 -0.076911755
-0.09584507 -0.10191416 0.0069397064 -0.10013132 0.025795352 -0.10042636 0.029713124 0.11514653
0.06172317 -0.005345446 -0.12195173 0.11833563 0.106831916 0.106810726 0.04964763 0.046762273
-0.05018008 -0.08558171 -0.036146455 -0.040143106 0.019993564 0.053249195 -0.047115617 -0.103625774
-0.07325903 -0.100963816 -0.10293879 0.08822903 0.06568218 -0.014037235 0.11889653 0.07661553
0.019491686 0.05356526 0.004455874 0.029186154 0.07738144 -0.1250547 -0.10438798 -0.0983171
-0.08415167 -0.1030453 0.09456291 -0.041889966 0.09262328 -0.08899867 -0.03457985 -0.12097512
-0.040784404 0.04532181 0.010564116 0.03734574 -0.056999072 -0.050490968 -0.07230023 -0.035462987
0.0017139717 0.110294424 0.062123287 -0.09050929 -0.021621779 -0.110874236 0.024950951 0.087343805
0.008688688 0.11623027 -0.118921824 -0.05691278 0.08761981 -0.036132958 -0.053459283 0.124394506

bias f4 [128]
00000000: 6967 6d3a 5d8c ac3b 3897 22bc 0232 35bc
00000010: fe68 27bb e58f 3cbc 879a 0ebc 0000 0000
00000020: 37ff fa3a 723c 9bbb 0160 803a e687 313c
00000030: 6981 38bc 59dd 9ebb c824 f1bb e418 ab3b
00000040: 713c ecba 7848 723a a33b ddbb 8d17 2eba
00000050: 0000 0000 0ab4 8c3b 9a9c 76ba 1906 813a
00000060: 5867 c9ba a6fa ccbb 4edd 61bb 792e 5b3b
00000070: 6bba 963b 9e06 023c b2da 8cba a74c 8f3b
00000080: 6e8e 04bc f59d 663b dc49 903b 22f7 b439
00000090: 79ab 0fb9 6978 96ba 0000 0000 b282 13bc
000000a0: 8221 cdbb a002 1cbc aff1 6ebb f6ea 0cbc
000000b0: bf8f 40bb 7f6a 0ebc 7385 55bb 3e55 ceba
000000c0: b3c4 56bb df35 e1ba c566 983a 5330 f3bb
000000d0: 372b 293c 5f42 113a 9392 4d3a 4fd4 e6bb
000000e0: 5788 cebb 29b2 203b 0000 0000 53b7 1dbc
000000f0: 8c59 ba3a 6828 50bb 3f6e 19ba 24e1 34bb
00000100: 2bd7 96bb 32f6 b0bb 0000 0000 0000 0000
00000110: 8660 06bb 2c3d d0b9 2312 4fbb 24c1 ebba
00000120: e9f4 16bc 8917 e8bb 1310 85bb 1595 c43a
00000130: 44ac 6cbb bf3e 3c3b 3ff2 8239 7da0 983b
00000140: 002a 2ebb 13c9 abba e2ae 3bbb 0000 0000
00000150: b6f0 6bba 28c8 25bb aee0 9e3b 09f6 29bb
00000160: cbf7 1dbb 84cb 9cba a123 f3ba d07a 9ebb
00000170: 7d16 eb37 1a78 a9bb a47e 81bb 4ac9 8539
00000180: 3b0c 503b 3b6a f2bb be3d 41bb 683f 1c3c
00000190: 8890 0abc 4637 f0bb 0000 0000 0b0b d9bb
000001a0: 0000 0000 5660 553b 67a4 62bb 0000 0000
000001b0: 0000 0000 0000 0000 80a8 b0bb 2733 903b
000001c0: a1ec acbb 1041 8bbb 75ad bbbb 0000 0000
000001d0: 05e9 25bb 3025 1ebb 45e6 d6bb 3c3b ff3a
000001e0: 2e8e ee3a 1c55 c93b 7ecf 5eba 0000 0000
000001f0: b3b8 75bb 5a0a fbbb 098b 5d3a 64b8 a7bb
0.0009056242 0.005265756 -0.009923749 -0.011059286 -0.0025544758 -0.0115089165 -0.008703834 0.0
0.0019149546 -0.0047374303 0.0009794236 0.010835623 -0.011261323 -0.004848164 -0.007359121 0.005221473
-0.0018023384 0.0009242366 -0.006751494 -0.00066410826 0.0 0.0042939233 -0.0009407491 0.0009843736
-0.0015365882 -0.0062554656 -0.0034464183 0.0033444448 0.0045998595 0.007936148 -0.0010746329 0.0043731513
-0.0080905985 0.0035189365 0.004403336 0.00034516404 -0.00013701421 -0.0011479977 0.0 -0.009003328
-0.006260098 -0.00952211 -0.0036459973 -0.008600941 -0.0029382554 -0.008692383 -0.0032580763 -0.0015741957
-0.003277105 -0.0017182193 0.0011627307 -0.007421532 0.010325245 0.0005541201 0.00078419707 -0.007044352
-0.006302874 0.0024520254 0.0 -0.009626227 0.0014217361 -0.0031762365 -0.0005852915 -0.0027600015
-0.0046032867 -0.0054004425 0.0 0.0 -0.002050431 -0.00039718428 -0.0031596504 -0.0017986638
-0.009213665 -0.0070828837 -0.004060754 0.0014998043 -0.003611342 0.0028723923 0.0002497602 0.0046578036
-0.0026575327 -0.001310619 -0.0028638174 0.0 -0.00090004073 -0.0025296304 0.0048485612 -0.0025934002
-0.0024103995 -0.0011962508 -0.0018550047 -0.0048364177 2.8024655e-05 -0.005171788 -0.0039518643 0.0002551771
0.0031745571 -0.0073979176 -0.0029486264 0.009536602 -0.0084573105 -0.007330808 0.0 -0.006623631
0.0 0.0032558641 -0.0034582855 0.0 0.0 0.0 -0.0053911805 0.004400629
-0.005277232 -0.0042496994 -0.005727465 0.0 -0.0025315892 -0.0024131052 -0.006558212 0.0019472609
0.0018200332 0.006144179 -0.00084995467 0.0 -0.0037494123 -0.007661146 0.0008451199 -0.0051184166

weight f4 [64, 128]
00000000: 7720 513d 2b12 45bd 43fe d13d 84e6 d53d
00000010: 6082 773d 6411 0cbe eb0f 60bd 8eec babd
00000020: ad34 72bd 40d0 c2bd b236 16be 3a70 47bd
00000030: 9143 30bd e16e 1abe 3682 1abe 1f32 473d
00000040: fd03 a2bd ba43 19be 5045 a13d 3208 de3d
00000050: 1354 303e 355d 2dbe 6f70 833d d922 8abd
00000060: 997d 8f3c a237 8b3d a7cf 263e 22ec 0db9
00000070: 3933 943c 9f89 503d 2ff2 fbbd 48ea 2abe
00000080: fc4c 0abc 1c5e fa3d c237 0bbe e1c3 b83d
00000090: 7467 1fbe ad19 e5bb 3b6d 263e 2197 04be
000000a0: e340 143e 4de2 1b3c 80d9 493d b737 343e
000000b0: 8c7b 813d 7a98 13be 2941 cabc 1efa 94bd
000000c0: a50d 773d ed63 133e d264 25be 6872 d2bd
000000d0: e042 a73d f254 2a3e 3381 bdbd 43df c63c
000000e0: 33ba 823d aa88 243d 0a2e 8fbd 4c60 08bd
000000f0: 8cf2 f5bc d4fd 13be 4e31 8b3d ebd2 c9bd
00000100: 05bc dc3b 5319 053e dce9 26be bcf6 4e3d
00000110: 285a 9d3d a352 6ebd e900 9c3c 8626 20be
00000120: 7311 8abd d36b a3bd d8e5 00bd e4e4 d8bd
00000130: 876e 26be 2968 0dbe 1140 32be 821f ce3d
00000140: d742 653d 5d6e 7cbd 9443 91bd a9e2 293e
00000150: b010 fdbc c513 2c3e 6aff eebc ac59 ae3d
00000160: 18cf fb3d a558 16be cc86 d8bd 69b2 273e
00000170: beef dc3d a722 353c bf4d ca3d 8c80 253e
00000180: cbd2 953d b680 debd 9615 113e 9393 353d
00000190: 105d 59bd da89 973d 00d9 fdba bc4e e6bd
000001a0: a0af 8bbb fe0c 82bd 44b3 683d 40f2 49bc
000001b0: 4818 94bc d1e4 0d3e 455c f3bd fe9a 233e
000001c0: e88f 0fbe c8c6 2e3c e573 23be 5fbd 2d3e
000001d0: bc59 2abe d67c ae3d 8f1c 243e 8df7 1d3e
000001e0: cfa0 9bbd 176c f83d 41b8 93bd 48e9 d33c
000001f0: fc1a 0f3d 3dd7 c5bb 8109 e7bd fd17 c83d
00000200: cd9f e13d d235 14be 97e0 5d3d 4b61 08bd
00000210: 4d57 67bd d5ff ebbd 49b4 0bbd 6019 dfbb
00000220: 9661 e13d 7701 c93b cb5e a43d cf83 f83d
00000230: 5440 aa3d 036d 323d 6226 c83d b481 8dbd
00000240: 3572 5a3d 71f0 72bc afe2 a6bc deb5 2b3e
00000250: 1008 e53c 9391 933d e55d a73d 34bb 43bc
00000260: a140 383e 5d8e e03d 4f2c ab3d 2443 babd
00000270: d13e 40bc dad0 01be 621a 8dbd d600 023e
00000280: c859 adbd cedd 13be 77fb 343e def9 603e
00000290: f293 b4bd 3d3c 283e bccc 31be b7ed 8c3c
000002a0: c027 103e 19ce 0c3d 63e1 6e3d 8099 99bc
000002b0: a21e a2bd c121 023e 97a3 dc3d d14d f93d
000002c0: b7cd 0c3e 8287 c33d d2ee 183e 634a 09be
000002d0: 4204 22bd 191e 7bbd 161b 263e 7d58 413e
000002e0: 09e3 d13d c885 b63a b055 4c3d 656e 2fbe
000002f0: f0a9 033d 1f80 8a3d fc4e cbbd b1a3 2cbe
00000300: 84b8 f1bd 7782 ea3b 205d 393d 20fc f23b
00000310: 3bd0 38be f5e0 babd 7996 fdbb c2fe 8fbd
00000320: da7b e2bd 0ec5 9bbd bedb 673c da27 2d3e
00000330: ae23 423d 06a2 1ebe c644 0abe 8712 dc3d
00000340: 3670 883d caa5 1d3e 4172 9c3c e82d c43c
00000350: 2b70 3bbd d139 333d 089c da3c aa7e e4bd
00000360: 16dc 973c 46f0 243e 4503 073e 49c2 eb3d
00000370: 279e d8bd b81f 643b 6069 333d 10e2 fabd
00000380: 86b7 42be f9df 463e a416 b63d 156a 0ebe
00000390: 8ea5 f0bd 807e 2dbd adf8 c0bd 0293 663d
000003a0: 3ce5 35bd 1bc2 973d c43b 913d eeaf 75bd
000003b0: f8cf 953d 71bd c3bd d452 ee3d 8886 e0bd
000003c0: 6c6e 703d f008 fc3d cc65 ed3d b706 d3bd
000003d0: 08c8 09be d407 473d edbe 413c d719 273d
000003e0: eba4 0abd 1d0f 31bc c20f c7bc 9847 20bd
000003f0: 4847 c63d b425 243e 78de 48be 0a50 27bd
0.05105635 -0.04811303 0.10253575 0.10444358 0.06042707 -0.13678509 -0.05470268 -0.091271505
-0.059132267 -0.09512377 -0.14669302 -0.048691012 -0.043033186 -0.1508136 -0.15088734 0.048631784
-0.07910917 -0.14967242 0.078745484 0.10841407 0.17219572 -0.16930087 0.064179294 -0.06744928
0.017515944 0.067977205 0.1629015 -0.00013534774 0.018090831 0.050912496 -0.12302052 -0.16690934
-0.008441206 0.12224981 -0.13595489 0.09021736 -0.15566808 -0.006991586 0.16252606 -0.12948276
0.14477877 0.0095144035 0.04927969 0.17599379 0.06322393 -0.14413634 -0.024689274 -0.072742686
0.060315747 0.14393587 -0.16151741 -0.102757275 0.08167052 0.16633967 -0.092531584 0.024276381
0.06383171 0.040169396 -0.06991203 -0.03329496 -0.030022882 -0.14452296 0.067965135 -0.098546825
0.006736281 0.12997942 -0.16300148 0.050528273 0.076832116 -0.058184277 0.019043403 -0.15639696
-0.067416094 -0.0797955 -0.031469196 -0.105905324 -0.162531 -0.13809265 -0.17407252 0.100646034
0.055971947 -0.061628688 -0.07092968 0.1659037 -0.030891746 0.16804416 -0.029174525 0.08513197
0.122953594 -0.14682253 -0.105725855 0.16376652 0.10787915 0.011055625 0.0987811 0.16162318
0.07315596 -0.108643934 0.1416839 0.04433019 -0.053067267 0.0739934 -0.0019367039 -0.11245486
-0.0042628795 -0.06350134 0.056811586 -0.012325823 -0.018077984 0.13856818 -0.118828334 0.15977094
-0.1401974 0.01066751 -0.15962179 0.1696677 -0.16635793 0.08519904 0.16026519 0.15426464
-0.07599031 0.121299915 -0.07212878 0.025868073 0.034937844 -0.0060376213 -0.112811096 0.097702004
0.11016808 -0.14473656 0.054169264 -0.03329591 -0.05647974 -0.115234055 -0.03410748 -0.006808445
0.11004941 0.006134208 0.08025893 0.121345155 0.08313051 0.043560993 0.09772946 -0.069095045
0.053331573 -0.0148278335 -0.020371763 0.16768596 0.027957946 0.072055005 0.08172206 -0.011946488
0.17993404 0.10964654 0.083580606 -0.09094837 -0.011733727 -0.12677327 -0.06889798 0.12695631
-0.0846439 -0.1444008 0.17674051 0.21970317 -0.08817281 0.16429229 -0.17363256 0.017203195
0.14077663 0.034376238 0.058320414 -0.018749952 -0.07915999 0.12708189 0.1077339 0.121730454
0.13750349 0.095473304 0.14934853 -0.13407283 -0.03955484 -0.061308 0.1622127 0.18881412
0.10248382 0.0013925368 0.049886405 -0.17131956 0.032144487 0.067627184 -0.099271744 -0.16859318
-0.11802772 0.007156666 0.045254827 0.0074153095 -0.18048184 -0.091249384 -0.007738885 -0.07031013
-0.11058779 -0.076059446 0.014151512 0.16909733 0.047397308 -0.15491495 -0.13502797 0.10745721
0.066620275 0.15395275 0.01909745 0.023947671 -0.04576127 0.04375631 0.02668573 -0.11156972
0.018537562 0.16107282 0.13184841 0.11511666 -0.1057704 0.0034808945 0.043801665 -0.12250149
-0.19015321 0.19421376 0.08891037 -0.13907655 -0.11750327 -0.042356968 -0.09422431 0.05629254
-0.044408068 0.074100696 0.070914775 -0.059982233 0.073150575 -0.095576175 0.11636892 -0.1096316
0.058699057 0.12306392 0.11591682 -0.10304015 -0.13455212 0.04859145 0.011825305 0.040796127
-0.033848684 -0.010806826 -0.024299506 -0.039130777 0.096815646 0.16030008 -0.19616115 -0.040847816

bias f4 [64]
00000000: d92e 1cbc f381 9bbb 3cd9 afba a2d6 1fbb
00000010: 7b2f c8bb 2c9d 79bc b78b 443b c83c 26bc
00000020: fe3c a339 9522 5939 fa78 a9ba 0000 0000
00000030: 1076 e8bb d228 943b 6ac5 34bc afe1 00bc
00000040: 6f12 aabb 0000 0000 1885 bcb6 8be6 c1bc
00000050: 160e 28bb c1cd 85bc d0c5 6fbc 5916 f8bb
00000060: 5458 803a fea0 01bc 695b 0abb 9823 5e3b
00000070: 7dcf 19bc 90cb 87b8 f949 21bb 531d bd3b
00000080: aba2 ecba a688 d33a 8073 2cbb c7bd 98bb
00000090: 4b90 21bb 2d3a 38bb 5c31 623b 7b90 243c
000000a0: 1d1a 033c 6a34 2c3b 6d64 06bb 6d48 19bc
000000b0: 7cf9 f7bb fb1e e3ba c3b3 9fba 3da0 98bb
000000c0: 093a 08bc d0e0 c2bb 0000 0000 f202 91bb
000000d0: 3f27 e23a 10ac 4bbb d5eb a73b 7801 353c
000000e0: df92 803b d340 c3bb a508 f83b 5e0a 4cbc
000000f0: 0f4b 603b b3cf 0fbc 6b41 cbbc 6f27 16bc
-0.009532654 -0.0047457158 -0.0013416181 -0.0024389406 -0.0061091757 -0.015235227 0.0029990503 -0.010146327
0.00031135225 0.00020707615 -0.0012929731 0.0 -0.0070941523 0.0045214677 -0.011033395 -0.007866307
-0.0051901857 0.0 -5.6183308e-06 -0.023669502 -0.0025643161 -0.016333463 -0.0146345645 -0.0075710234
0.0009791949 -0.007911919 -0.0021111614 0.0033895727 -0.009387848 -6.475218e-05 -0.0024610742 0.005771318
-0.001805385 0.0016138747 -0.002631396 -0.004661295 -0.0024652656 -0.0028110847 0.0034514284 0.010044212
0.008001831 0.0026276358 -0.0020506636 -0.009355647 -0.0075675827 -0.0017327958 -0.001218431 -0.0046577738
-0.008314618 -0.00594721 0.0 -0.0044254 0.0017254128 -0.00310779 0.005124549 0.011047713
0.0039237584 -0.0059586554 0.00756939 -0.012453644 0.0034224426 -0.008777547 -0.024811467 -0.009164675

weight f4 [6, 64]
00000000: 7e83 9d3d 7d3a 18be e2c9 79be 1771 113e
00000010: da1d babd 770e 4cbd 6b89 283e e9f2 73be
00000020: f70d bcbd 89d9 babd 77b7 d13d 0425 413e
00000030: 07d1 8a3e d8bf 25be e302 abbd 19a0 4a3d
00000040: bed6 563e e0b2 ebbc caf0 413e 3a1d 0dbe
00000050: efcc 11be 6f60 8bbe f788 0e3e 3f7f 0d3e
00000060: 4124 19be 9475 cb3d e566 633e 343a 16be
00000070: a395 363e e366 ee3d 0709 763e 093d 5ebe
00000080: 32b4 01be b19a 97be 8edc 2b3e 8d90 54be
00000090: 38f5 95be 96fb 46be 8222 8b3d 8949 16be
000000a0: 0ed0 953d fca6 66bd f2f0 24be d98b 80be
000000b0: 7b50 cc3c 79cf 6fbd af89 aa3a 6b6c f6bd
000000c0: c541 06bd 8d36 aa3d 24ad 8a3e e5f6 863e
000000d0: 0fff 47bc b265 2ebb 1d8c 823e e133 623e
000000e0: 46b0 39bd de36 21be cd0b b33d 106a 8a3e
000000f0: 70fc 2a3e 607c 5b3e b8d5 50be 9fb1 92be
00000100: 3c79 3d3e 0f4c d13d 2721 303e 8f2d d33d
00000110: b9e9 9bbe 33ee 053d e0a6 93be 4d01 00be
00000120: 7a8f 4cbe 03e0 483e f73f 34be aea5 1f3e
00000130: 613d 3a3e 9f43 1cbe 4d5d 103e cb2b a53d
00000140: 13c1 203d 3057 823e 4d13 99bd efb9 8f3e
00000150: 2934 c63c f69d 89be 11f3 12be f214 0bbe
00000160: f722 863e 856d 44be 969d 82be a026 31be
00000170: ded1 f1bd 5cc5 2a3c 2375 37be 46d6 7f3a
00000180: 0b74 c63d 2ee1 6b3e 7c7b 5abd 4e3a 123d
00000190: 32cd 92bb a2e2 573e 1c8a 7cbb 4f15 8bbe
000001a0: 80d6 69be 429f 8ebd aedc 8cbe 6063 183e
000001b0: bb03 b23d b66c 283e 5ce8 223d 4c3a 13bd
000001c0: c49a 06be fd48 7c3e 44b1 7bbd 29ef 94bc
000001d0: fc43 cabd cc2e 7c3e 5b73 533e 8956 2cbe
000001e0: 266b fabd f1fa c43d 06ec 5bbc 7581 363e
000001f0: 19ea 08bd 163f 89be e5cc 4d3e 848a f53d
00000200: bd14 123e 82d4 2abe a246 a3bd 31ae ef3d
00000210: 83fb 2e3e dd31 823e 5d66 a3bd e69b f63d
00000220: 3b46 c73c f46e 1d3e 81d4 c73d aa11 3a3e
00000230: a6c4 253e c6eb 6c3e 4108 7a39 66a0 35bd
00000240: 4352 18be dc26 83be 3cce 633e 1d42 603e
00000250: 32b1 8f3e 44da 3fbd 6673 b73d bccd 8c3e
00000260: 7c69 68be 2571 133d eea0 71bd 19c0 94be
00000270: edf6 ffbd 9325 20be 9855 113e c206 c9bd
00000280: 029b f43d a83f ed3d b577 bebc e9a0 593e
00000290: 754d c53d 6b43 683e f624 3bbe 987b bdbd
000002a0: d347 1e3d 31c6 2abe 152c f23d c5bb 003e
000002b0: 926b 2bbe 84f7 55bd a6d8 20be a098 4d3e
000002c0: 8587 c33c 4446 483e cea3 1c3e 69df bdbc
000002d0: e71e bebd b15e 353e 7ee6 323e dd41 2c3b
000002e0: 2015 83be 1f9e 2ebe f806 30be baea 763e
000002f0: 4551 65be 0383 4c3e e2c4 a0bd c8ad 993d
00000300: ea67 01be 6935 8ebe dd76 08be fa6a 493d
00000310: 95d0 e6bd 75f6 3bbe 4a16 4c3e 8b22 f53d
00000320: a66c 813e 0f89 e33d b7fa c33d b8d4 e13d
00000330: 4caa 9abd a8b5 95be 735b 5ebe cb5d 4d3e
00000340: e441 1d3e 50f8 4d3d 8fa9 133c 416a e13d
00000350: a942 d3bd 74b7 84be 1800 51be 2396 90bd
00000360: f173 69bd 67d0 ca3d d034 8c3c 9004 72bd
00000370: dd0c d6bd 8dcf cdbd 23e7 3dbe 51db 77be
00000380: e224 96be 7d3b 5b3e 11da d0bb 21dd 893d
00000390: 7809 7dbe 9704 a6bc 977f 27be 88ac c5bd
000003a0: f032 3dbe 63f2 9fbc a4c0 4e3e 7ba5 7b3e
000003b0: 5421 873e 49cd 863e 144b 5c3d 58f2 d23c
000003c0: 605b 5dbe 050c 69be 40b9 853c e241 5abe
000003d0: 6da8 d93d eb54 2abe 8be9 6bbe be7c 81be
000003e0: 90b9 c93d 9413 633e 7eb4 743e a172 10be
000003f0: b1f1 393e ab29 1d3d 1da1 54be 8753 54be
0.07691096 -0.14866062 -0.24393418 0.14203297 -0.09087725 -0.049818482 0.16458671 -0.23823132
-0.09182351 -0.09123523 0.10240071 0.18861777 0.271126 -0.16186464 -0.0835016 0.049469087
0.20980355 -0.028771818 0.1893951 -0.1378068 -0.14238332 -0.2722201 0.13919435 0.13818072
-0.14955236 0.099345356 0.2220722 -0.1467064 0.1783052 0.11640718 0.24026881 -0.2170297
-0.12666395 -0.29610208 0.16783354 -0.20758267 -0.2928865 -0.1943191 0.06793691 -0.14676489
0.07315074 -0.056311592 -0.16107538 -0.25106695 0.02494072 -0.05854747 0.0013011004 -0.12032398
-0.032777566 0.08311186 0.2708522 0.2636024 -0.012206807 -0.0026610908 0.25497523 0.22090103
-0.045334123 -0.15743586 0.08742485 0.27034044 0.1669786 0.21434164 -0.20394027 -0.2865114
0.18503278 0.10219585 0.17200147 0.10311424 -0.30451754 0.032697868 -0.28838253 -0.12500496
-0.19976607 0.19616704 -0.17602526 0.15590546 0.18187477 -0.1526017 0.14098091 0.080649935
0.03924663 0.25457144 -0.074743845 0.28071544 0.024194794 -0.26878327 -0.14350535 -0.13582209
0.2619855 -0.19182403 -0.25510854 -0.1729989 -0.11807607 0.010423031 -0.17915778 0.0009759407
0.09690102 0.23035118 -0.05334042 0.035700135 -0.0044800276 0.21082547 -0.0038534468 -0.27164695
-0.22835732 -0.0696397 -0.27512115 0.14881659 0.08692118 0.1644772 0.039772376 -0.035944268
-0.13144976 0.24637218 -0.06144835 -0.018180447 -0.09876248 0.24627227 0.20649473 -0.16829886
-0.12227468 0.09618176 -0.013422972 0.17822821 -0.033426378 -0.26805943 0.20097692 0.119893104
0.14265724 -0.16682628 -0.079724565 0.11703146 0.17088132 0.25428668 -0.079785086 0.12041454
0.02432548 0.15374357 0.09757329 0.18170801 0.16188297 0.23136815 0.00023844933 -0.04434242
-0.1487513 -0.25615585 0.22246641 0.2190022 0.28064877 -0.046839014 0.089575574 0.27500713
-0.22696489 0.035996575 -0.058991365 -0.2905281 -0.12498269 -0.15639333 0.14192808 -0.09815742
0.11943628 0.11584407 -0.02325044 0.21252789 0.096339144 0.22681968 -0.18275818 -0.09252089
0.038642716 -0.16677167 0.11824814 0.12571628 -0.16740254 -0.052238002 -0.15707645 0.20077753
0.023868332 0.19558054 0.15296862 -0.02317782 -0.09283238 0.17711903 0.17470738 0.0026284375
-0.25602055 -0.17052506 -0.17190158 0.24112979 -0.22394283 0.19971852 -0.078500524 0.07503849
-0.12637296 -0.27775124 -0.13326593 0.049174286 -0.112702526 -0.18355735 0.19930378 0.11969479
0.25278205 0.11110126 0.095693044 0.11026901 -0.07552013 -0.29240155 -0.21714573 0.2005531
0.15357167 0.050285637 0.009012594 0.110065944 -0.10315449 -0.25921214 -0.20410192 -0.07059886
-0.056995336 0.09903031 0.017115027 -0.059086382 -0.10451672 -0.10049353 -0.18545203 -0.24204756
-0.29325014 0.21409412 -0.006373652 0.0673163 -0.24710643 -0.02026586 -0.16357265 -0.09652048
-0.18476462 -0.019524759 0.20190674 0.24574845 0.26392615 0.26328495 0.053782538 0.025750324
-0.21616888 -0.22758491 0.016323686 -0.21314195 0.10627828 -0.16633956 -0.23038308 -0.25290483
0.09849846 0.22175437 0.23896977 -0.14106227 0.18158604 0.038369816 -0.20764585 -0.20734988

bias f4 [6]
00000000: 19bb 9bbb 2986 febb 718c 00bb ff71 8d38
00000010: 2f44 63bb 4260 523b
-0.0047525284 -0.007767458 -0.001961496 6.744637e-05 -0.0034678092 0.003210083
