hw3/data/dqn_Pong_double_dqn_Pong-ram-v0_12-11-2018_23-17-48/0/model.pkl (torch_old, 306406 bytes, 8 tensors)

weight f4 [256, 128]
-0.113531984 0.088691115 0.017618619 -0.11255227 0.013503679 -0.026889874 0.012321785 0.026545554
-0.074890465 -0.12284282 0.074968874 0.026525145 -0.05004135 -0.10314302 -0.07649385 0.032676473
0.06918136 0.09643498 0.0786582 -0.09309427 -0.0646983 -0.0030370003 0.030268312 -0.0917739
-0.07581651 -0.12147243 0.08978196 0.06698728 -0.04359733 0.0026208325 -0.012682751 -0.0014245681
0.07425341 -0.06557425 0.08440294 -0.03698607 0.054642513 0.049632136 0.07534974 0.08030783
-0.025822485 -0.025904706 -0.028885668 -0.0037992024 -0.019845497 -0.029094797 0.11006627 0.05270218
0.027182562 -0.09128555 0.06621578 -0.09363052 -0.05764185 -0.06592058 -0.014210037 0.056127235
-0.013294259 -0.103229895 0.037243772 0.083038986 -0.0049827495 0.06321539 0.09323573 -0.0680679
-0.10227359 0.063348494 -0.06338884 0.038473688 -0.11003221 0.09253136 0.11872329 -0.030589698
0.056064036 -0.11658156 0.02512182 -0.09821015 0.10013059 0.064779446 0.070013225 -0.05917698
-0.081276506 0.027482614 0.06882617 0.04017569 -0.020154849 0.06984338 0.075667545 -0.031052694
0.046613857 0.048007205 -0.0043254048 -0.05308804 -0.08053829 0.0010358989 -0.08628167 0.062191024
-0.07806519 0.048053175 0.07652596 -0.018095315 0.11637731 -0.11553648 -0.046291724 0.09978138
0.093087405 -0.053811952 -0.0015831888 0.05848542 0.10699476 0.0721333 -0.10796122 -0.07595217
0.06647974 -0.07442215 -0.07192269 -0.08504358 -0.060162574 0.06787522 -0.12447721 0.016680285
0.016741708 -0.12070735 -0.10691449 0.03672685 -0.1264381 -0.12309034 -0.060932968 0.013363565
0.0016418546 -0.014702827 0.009689838 -0.029342428 -0.11080323 0.070320904 -0.09893194 0.09034383
0.0030222535 0.043046013 -0.07130171 -0.09440413 -0.0067091584 -0.031608224 -0.12360713 0.007495016
-0.07385352 0.054927155 0.019840911 -0.0040178746 0.0728199 -0.07054345 -0.030819133 -0.04772076
-0.022633478 -0.10503757 0.10445276 -0.045069396 -0.09459974 0.0941326 -0.122623354 -0.07719776
-0.029742017 -0.10790695 0.1059168 0.10111362 0.11154303 -0.07841039 0.11534822 0.054446906
-0.00018054247 0.11806348 0.093673244 -0.012054697 -0.082777485 0.024190485 -0.11842771 -0.0017304122
-0.10228567 -0.04730709 -0.050340265 -0.07224131 0.068925634 0.080116674 0.08457348 0.11238694
-0.074131474 0.08695246 -0.06944159 -0.12474662 0.034640074 0.05941011 -0.09793781 -0.08326721
0.048441425 0.08463985 -0.03724833 -0.0055045187 -0.09956625 0.0718783 0.08885512 0.08262102
-0.0034142733 0.068885624 -0.023937315 -0.003924966 0.02138488 0.04022084 0.017085671 -0.036628217
-0.07134846 0.0858476 -0.08537428 0.0006329715 -0.031979844 0.11666182 0.07216734 0.043424755
0.026029795 -0.103540465 -0.055312037 0.09454343 0.0032254606 0.016738206 0.07927455 -0.061386406
-0.03655544 -0.01903294 -0.01764509 0.05375907 -0.033421576 0.04282731 0.053387284 -0.10320073
-0.049011856 0.037774354 0.046289593 -0.03641455 -0.08643028 0.0067288876 0.06071411 -0.084115475
0.09556778 -0.010252744 0.103675514 0.083723694 -0.103193134 -0.00075519085 -0.06258951 -0.12472461
0.014223412 -0.117850214 -0.069988266 0.070765585 0.0955697 -0.040539026 -0.124866694 -0.014293447
00000000: 7583 e8bd b0a3 b53d ec54 903c ce81 e6bd
00000010: 893e 5d3c 2748 dcbc 50e1 493c 1076 d93c
00000020: 2c60 99bd 0495 fbbd 4889 993d 434b d93c
00000030: 29f8 4cbd a63c d3bd cfa8 9cbd c4d7 053d
00000040: f5ae 8d3d b47f c53d 8d17 a13d 35a8 bebd
00000050: 8b80 84bd 6908 47bb 40f5 f73c f4f3 bbbd
00000060: b045 9bbd 8ac6 f8bd 9bdf b73d a130 893d
00000070: 1d93 32bd 46c2 2b3b 50cb 4fbc 93b8 baba
00000080: 2c12 983d cb4b 86bd 73db ac3d b57e 17bd
00000090: d4d0 5f3d 114b 4b3d f750 9a3d 6e78 a43d
000000a0: ad89 d3bc 1b36 d4bc a3a1 ecbc 0afc 78bb
000000b0: 0693 a2bc 3658 eebc 6d6a e13d 3ede 573d
000000c0: f7ad de3c ebf3 babd 249c 873d 5cc1 bfbd
000000d0: dc19 6cbd 5e01 87bd 37d1 68bc ace5 653d
000000e0: 2ad0 59bc 326a d3bd ed8c 183d 5810 aa3d
000000f0: 5546 a3bb 1277 813d 60f2 be3d 2f67 8bbd
00000100: d174 d1bd dbbc 813d 02d2 81bd 9696 1d3d
00000110: 9158 e1bd 1581 bd3d 3225 f33d 3f97 fabc
00000120: 67a3 653d 50c2 eebd 46cc cd3c 6722 c9bd
00000130: 4411 cd3d 16ab 843d 1863 8f3d 9063 72bd
00000140: 4c74 a6bd 3823 e13c bcf4 8c3d 448f 243d
00000150: c81b a5bc 0c0a 8f3d 96f7 9a3d 3862 febc
00000160: 2cee 3e3d 34a3 443d 20bc 8dbb d872 59bd
00000170: 42f1 a4bd 00c7 873a 72b4 b0bd 04bc 7e3d
00000180: a4e0 9fbd 68d3 443d a4b9 9c3d a03c 94bc
00000190: 3a57 ee3d 649e ecbd 649c 3dbd 2e5a cc3d
000001a0: 9ca4 be3d ec69 5cbd 0083 cfba 688e 6f3d
000001b0: 1220 db3d a0ba 933d c61a ddbd d08c 9bbd
000001c0: 8826 883d a46a 98bd 344c 93bd 542b aebd
000001d0: 086d 76bd 2a02 8b3d e8ed febd 18a5 883c
000001e0: e825 893c 6a35 f7bd fcf5 dabd e56e 163d
000001f0: fd78 01be ca16 fcbd d994 79bd dbf2 5a3c
00000200: 8033 d73a 20e4 70bc 20c2 1e3c 885f f0bc
00000210: ceec e2bd 6804 903d d49c cabd 3006 b93d
00000220: 0011 463b 0451 303d a206 92bd f456 c1bd
00000230: 80d8 dbbb a077 01bd bc25 fdbd c098 f53b
00000240: 8440 97bd 4cfb 603d 6889 a23c 60a8 83bb
00000250: 9a22 953d 1679 90bd 6878 fcbc d876 43bd
00000260: d869 b9bc f01d d7bd 54eb d53d b09a 38bd
00000270: 82bd c1bd 98c8 c03d f421 fbbd dc19 9ebd
00000280: 88a5 f3bc 52fe dcbd e8ea d83d a814 cf3d
00000290: ac70 e43d a095 a0bd b03b ec3d b803 5f3d
000002a0: 0050 3db9 44cb f13d c2d7 bf3d 1081 45bc
000002b0: 3e87 a9bd 202b c63c 3a8a f2bd 00cf e2ba
000002c0: 267b d1bd 14c5 41bd 9831 4ebd 40f3 93bd
000002d0: e228 8d3d 3614 a43d dc34 ad3d 202b e63d
000002e0: 3ed2 97bd 2214 b23d 6437 8ebd 287b ffbd
000002f0: c0e2 0d3d 0458 733d 9e93 c8bd 0088 aabd
00000300: 846a 463d a857 ad3d b491 18bd 405f b4bb
00000310: 64e9 cbbd ee34 933d acf9 b53d 3635 a93d
00000320: 00c2 5fbb e813 8d3d 3018 c4bc 009d 80bb
00000330: 582f af3c 9cbe 243d 40f7 8b3c 7807 16bd
00000340: 241f 92bd ded0 af3d b6d8 aebd 00ee 253a
00000350: 4cfd 02bd 64ec ee3d 78cc 933d 28de 313d
00000360: 703c d53c 060d d4bd e08e 62bd fc9f c13d
00000370: 4062 533b 901e 893c b25a a23d 5070 7bbd
00000380: 28bb 15bd f8ea 9bbc 708c 90bc 7832 5c3d
00000390: 10e5 08bd b06b 2f3d a0ac 5a3d e85a d3bd
000003a0: a8c0 48bd 48b9 1a3d 289a 3d3d 6c27 15bd
000003b0: 5c02 b1bd 007e dc3b 5caf 783d bc44 acbd
000003c0: 0ab9 c33d 20fb 27bc d453 d43d 5477 ab3d
000003d0: ec56 d3bd 00f8 45ba ee2e 80bd 9e6f ffbd
000003e0: 5009 693c 745b f1bd 0256 8fbd 8ced 903d
000003f0: 0cba c33d 400c 26bd 1cba ffbd 102f 6abc

bias f4 [256]
-0.0048485603 0.0 -0.0033887413 -0.004641984 -0.0013939409 1.1371798e-05 -0.004910076 0.0023139508
0.0016139015 0.0006497972 0.0 0.0033305886 -0.0029315404 0.0 0.0 -0.0036967692
0.00034693477 -0.0012270091 0.001420234 0.0 0.0 0.00014755885 -0.0007236075 -0.0032920667
0.0025129241 -0.0004076613 -0.0005311483 -0.0024470633 -0.001890404 0.0 0.005233472 -0.0003753857
0.0 -0.0013775582 0.0008078262 -0.004052747 -0.0030462518 0.0 -0.0036139407 0.0
0.0 0.0 0.0 -0.0008917178 -0.003710922 -0.007883939 0.0 0.00026727305
-0.004658543 0.0029711889 -0.0017377355 0.0022995535 0.002475365 -0.002151306 0.0007191411 -0.00532802
-0.0048510707 0.0 0.0021626835 0.0018792255 0.0019238694 0.00369071 0.0 0.0031198317
0.0 -0.0030235818 0.0 -0.003200913 -0.0015035052 0.0 0.014080111 0.0
0.0 -0.0008365779 -0.005379362 0.0 0.0 -0.00095163565 -0.0025136769 0.0
-0.0039413883 0.0 -0.0009202664 0.001961378 0.0017483208 0.0 0.0 -0.0006233596
-0.0019013134 0.0 -0.0007802329 -0.00016783919 -0.0009015956 0.009721462 0.0015365604 -0.004514877
0.0 0.0 0.0028752417 0.0 -0.0017677599 -0.0017466875 0.00023709344 0.0
0.0 0.0027076579 0.00081260025 0.01137642 -0.0040905233 -0.005092783 0.0 0.008480648
-0.0008490266 0.0016406525 0.0074303467 -0.0029344035 -0.0036266104 -0.004973389 0.0 -0.0039006541
-0.0023340678 -0.00027324536 0.0 -0.0047443737 -0.0041982858 0.0 -0.0035302658 0.0007473543
-0.002454433 1.1869141e-05 -0.0023714204 0.0051079085 0.0025271617 -0.0033027 -0.0041869567 0.0009560528
0.0019298518 -0.0037358594 0.0 -0.0019763405 0.0017704756 0.0 -0.0024436538 0.0015081472
-0.0018812056 -0.0009649477 -0.00055419374 0.003606756 -0.0034541592 -0.0020581933 -0.0048517506 0.0
-0.001710331 0.0 0.00042570595 0.0010388918 0.0 -0.00015392526 0.0 0.0
0.0048639392 -0.0025675518 -0.0028558238 -0.00039073132 0.0 0.0011389608 -0.0026883697 2.8948603e-05
-0.0011265486 -0.00346573 0.0 0.0 0.0 0.0019508715 0.0 0.00082448067
0.00050265685 -0.0045480467 0.00032760223 0.0063273236 0.00061583205 -0.0015512618 0.0 0.0015542833
0.0 0.0016937599 0.0012197833 -0.000531339 0.0011146184 0.0 0.0 0.0
-0.0037130085 0.000101569494 0.0017328273 -0.00042046036 0.0012901933 0.0013151007 0.0 0.00044025018
-0.00437955 -0.0014053646 -0.0009973074 -0.003194125 -0.0023713708 0.0013714352 0.0039040407 0.0077988002
-0.0009452011 0.0 0.0026371337 -0.007186129 -0.0029453903 0.0035668737 0.0 -0.0008122004
0.0008585048 0.0011897065 -0.0027425624 0.0020201267 0.0053180717 0.001132307 0.00013865512 -0.0031823562
-7.3570605e-05 0.0 -0.0021683804 0.0 -0.0012023043 -0.0027008345 -0.0026688601 0.0
0.0 -0.0036906474 -0.0027058343 -0.007316813 0.0 -0.0009541867 -0.003913132 0.0016601303
0.0015076722 -0.002932623 0.0011876962 -0.0031111755 -0.0011249866 -0.0031267393 0.0 0.00020927872
0.0 1.7816297e-05 0.0014186986 0.0 0.0 0.0027759953 -0.0027138873 0.0066522635
00000000: ace0 9ebb 0000 0000 a515 5ebb c91b 98bb
00000010: e5b4 b6ba 80c9 3e37 b4e4 a0bb a7a5 173b
00000020: 8c89 d33a 2757 2a3a 0000 0000 0146 5a3b
00000030: 161f 40bb 0000 0000 0000 0000 7f45 72bb
00000040: cce4 b539 98d3 a0ba 2527 ba3a 0000 0000
00000050: 0000 0000 07ba 1a39 7ab0 3dba b7bf 57bb
00000060: dfaf 243b 60bb d5b9 c23c 0bba e95e 20bb
00000070: 6fc7 f7ba 0000 0000 8c7d ab3b 6acf c4b9
00000080: 0000 0000 2f8f b4ba 4cc4 533a e8cc 84bb
00000090: a0a3 47bb 0000 0000 ddd7 6cbb 0000 0000
000000a0: 0000 0000 0000 0000 0000 0000 2bc2 69ba
000000b0: f132 73bb a32b 01bc 0000 0000 c820 8c39
000000c0: b1a6 98bb 47b8 423b bac4 e3ba 1bb4 163b
000000d0: bc39 223b edfc 0cbb be84 3c3a ac96 aebb
000000e0: bbf5 9ebb 0000 0000 cfbb 0d3b 5850 f63a
000000f0: 582a fc3a d7df 713b 0000 0000 1776 4c3b
00000100: 0000 0000 4927 46bb 0000 0000 69c6 51bb
00000110: 4311 c5ba 0000 0000 44b0 663c 0000 0000
00000120: 0000 0000 cb4d 5bba 5c45 b0bb 0000 0000
00000130: 0000 0000 3077 79ba 80bc 24bb 0000 0000
00000140: c326 81bb 0000 0000 083e 71ba 768a 003b
00000150: e927 e53a 0000 0000 0000 0000 f468 23ba
00000160: 7e35 f9ba 0000 0000 8b88 4cba fdfd 2fb9
00000170: 0e59 6cba c446 1f3c 6966 c93a 89f1 93bb
00000180: 0000 0000 0000 0000 8d6e 3c3b 0000 0000
00000190: 2eb4 e7ba 1bf1 e4ba 499c 7839 0000 0000
000001a0: 0000 0000 f672 313b ae04 553a 2a64 3a3c
000001b0: cc09 86bb 5ce1 a6bb 0000 0000 6af2 0a3c
000001c0: 3691 5eba 2a0b d73a 447a f33b 1f4f 40bb
000001d0: 6dac 6dbb d0f7 a2bb 0000 0000 1ea2 7fbb
000001e0: 29f7 18bb 5f42 8fb9 0000 0000 b176 9bbb
000001f0: c691 89bb 0000 0000 085c 67bb 19ea 433a
00000200: 8dda 20bb 9321 4737 d569 1bbb 3e60 a73b
00000210: bd9e 253b 1c72 58bb bd32 89bb 9e9f 7a3a
00000220: 15f3 fc3a 52d5 74bb 0000 0000 7e85 01bb
00000230: 4e0f e83a 0000 0000 b525 20bb 06ad c53a
00000240: c992 f6ba 8bf4 7cba 5047 11ba 535f 6c3b
00000250: 2d5f 62bb c1e2 06bb 6ffb 9ebb 0000 0000
00000260: 2f2d e0ba 0000 0000 4931 df39 6d2b 883a
00000270: 0000 0000 ff66 21b9 0000 0000 0000 0000
00000280: ae61 9f3b 5f44 28bb c628 3bbb 12db ccb9
00000290: 0000 0000 2f49 953a 5c2f 30bb a7d6 f237
000002a0: b3a8 93ba 4d21 63bb 0000 0000 0000 0000
000002b0: 0000 0000 63b4 ff3a 0000 0000 f621 583a
000002c0: bbc4 033a c807 95bb 07c2 ab39 7055 cf3b
000002d0: ca6f 213a b553 cbba 0000 0000 18b9 cb3a
000002e0: 0000 0000 2701 de3a 23e1 9f3a 8f49 0bba
000002f0: 6318 923a 0000 0000 0000 0000 0000 0000
00000300: f255 73bb b501 d538 0920 e33a 3c71 dcb9
00000310: b41b a93a 755f ac3a 0000 0000 61d1 e639
00000320: 5482 8fbb 3634 b8ba 15b8 82ba 8654 51bb
00000330: 0069 1bbb bbc1 b33a efda 7f3b 148d ff3b
00000340: 5fc7 77ba 0000 0000 c3d3 2c3b 9f79 ebbb
00000350: 7307 41bb 36c2 693b 0000 0000 d9e9 54ba
00000360: 480d 613a edef 9b3a 90bc 33bb 1a64 043b
00000370: 3843 ae3b eb69 943a f363 1139 148f 50bb
00000380: eb49 9ab8 0000 0000 631b 0ebb 0000 0000
00000390: a396 9dba 7c00 31bb 0be8 2ebb 0000 0000
000003a0: 0000 0000 cade 71bb 5e54 31bb e0c1 efbb
000003b0: 0000 0000 6322 7aba bb39 80bb bb98 d93a
000003c0: 169d c53a 4031 40bb 79ac 9b3a dde4 4bbb
000003d0: 4974 93ba fbe9 4cbb 0000 0000 d471 5b39
000003e0: 0000 0000 3574 9537 a0f3 b93a 0000 0000
000003f0: 0000 0000 79ed 353b 79db 31bb 3bfb d93b

weight f4 [128, 256]
0.07564446 0.059608743 -0.005539857 -0.097290754 0.0032741146 -0.0979741 -0.111226626 -0.13205242
-0.10890669 0.07493067 -0.10217421 -0.016090998 0.07891118 0.042202502 0.12131272 0.06079152
0.063679114 -0.010404107 0.11049155 -0.043462962 0.021915525 0.12194012 0.056787286 0.10994468
-0.0083731 -0.01095912 0.07530184 0.06924232 0.041806284 -0.070674226 0.11278712 -0.087863654
-0.005831301 -0.02926755 -0.08022824 0.115093775 0.07670282 0.07887933 -0.097554974 -0.123572215
0.0985184 0.07704899 0.012295872 0.03664308 -0.0012776188 0.02805398 -0.022830233 -0.08248329
0.07827648 -0.12284693 0.08929112 0.066792436 -0.03827436 0.083887905 -0.10195656 0.11680333
-0.09781676 0.0037729293 0.05745368 -0.005224232 -0.104365684 -0.07539784 -0.00545834 -0.027682822
0.03644684 -0.08236125 -0.07762906 0.04506022 0.10807803 -0.017927572 -0.027491564 0.09408988
0.06023112 -0.05534168 -0.07541953 -0.065933555 -0.07058194 0.0046469495 0.013007218 0.05865921
0.10155962 -0.0035663396 -0.06444462 -0.026795836 -0.06923714 0.07744372 -0.12002042 -0.042836666
-0.018568533 -0.094180495 0.06692612 -0.03571334 -0.01460466 -0.0027566168 0.10378318 -0.0027103906
0.023988888 0.015718922 0.026097968 -0.09940243 -0.06670644 0.007942671 0.08211263 0.09582576
0.035050303 -0.06774492 0.061953515 0.0668634 -0.10665288 -0.022870399 -0.109048426 -0.025148893
0.057731293 -0.041716725 0.08306351 0.07603671 0.115263976 0.08313351 0.048230827 0.0330545
-0.057289176 0.05529692 -0.104494035 0.07673551 0.10027815 0.08686666 -0.09687908 -0.04316649
-0.10620257 0.015311072 -0.025897298 -0.11908854 -0.10379354 -0.049055237 0.06761435 0.015848633
-0.019857958 0.09797768 0.05207947 0.07498563 -0.04337297 -0.010435075 0.037505195 -0.112456076
-0.018928017 0.066265985 0.031790826 0.019998273 -0.032890413 0.10958173 -0.1168577 -0.10725932
0.00596662 -0.05139111 0.05507689 -0.014418608 -0.07383315 -0.06074051 0.030639172 0.09752807
0.055702113 0.1126869 -0.1219813 0.06430757 -0.03724639 0.027676795 -0.12523407 -0.10581367
-0.028000874 0.03803646 -0.078758106 -0.11696443 0.050022736 0.085982606 -0.030367702 -0.058309183
-0.03769654 0.023050051 -0.10179319 0.05237637 -0.098515555 0.0342511 -0.083851874 -0.08330603
-0.09584507 -0.11769783 0.0005720025 -0.08609096 0.04060484 -0.10042636 0.029713124 0.11514653
0.057730563 -0.0053454638 -0.10744819 0.11803784 0.115890585 0.10773437 0.04964763 0.063627884
-0.056832906 -0.08874995 -0.036140837 -0.043214656 0.019721925 0.0494479 -0.05064861 -0.1160647
-0.07996564 -0.100963816 -0.11383438 0.08874466 0.062733665 -0.016411979 0.11889653 0.07641485
0.0046748756 0.04876445 0.0008816676 0.02254744 0.06241792 -0.12901537 -0.10438809 -0.10380744
-0.08737383 -0.1030453 0.0996252 -0.041889966 0.092433296 -0.09292832 -0.034510624 -0.12097512
-0.040784404 0.04237638 0.0106676435 0.043171633 -0.056999072 -0.055356927 -0.08259154 -0.031134067
-0.012453779 0.11788608 0.058913384 -0.08437642 -0.029561339 -0.11545889 0.024950951 0.084901154
0.008688688 0.1168538 -0.10708629 -0.05691278 0.08761981 -0.03812728 -0.056141466 0.12402422
00000000: 7ceb 9a3d 4c28 743d b087 b5bb 6040 c7bd
00000010: 8792 563b a5a6 c8bd c9ca e3bd c038 07be
00000020: 780a dfbd 4075 993d b640 d1bd 45d1 83bc
00000030: 2f9c a13d 88dc 2c3d ce72 f83d 8700 793d
00000040: 326a 823d fd75 2abc 6549 e23d 3806 32bd
00000050: 3088 b33c bebb f93d c999 683d ad2a e13d
00000060: 542f 09bc e18d 33bc da37 9a3d ebce 8d3d
00000070: 113d 2b3d a6bd 90bd effc e63d dcf1 b3bd
00000080: 8014 bfbb 80c2 efbc b44e a4bd 49b6 eb3d
00000090: 5e16 9d3d 7c8b a13d e7ca c7bd 6e13 fdbd
000000a0: 04c4 c93d dccb 9d3d a074 493c 0e17 163d
000000b0: c675 a7ba 76d1 e53c 7806 bbbc 00ed a8bd
000000c0: 6b4f a03d 2c97 fbbd 43de b63d 79ca 883d
000000d0: 93c5 1cbd 6ccd ab3d 9ace d0bd 9636 ef3d
000000e0: 2754 c8bd 4043 773b 8d54 6b3d 0930 abbb
000000f0: adbd d5bd 2f6a 9abd e0db b2bb 16c7 e2bc
00000100: 4849 153d 04ad a8bd fcfb 9ebd 1191 383d
00000110: 0458 dd3d d8dc 92bc fd35 e1bc 32b2 c03d
00000120: e8b4 763d f5ad 62bd 8e75 9abd 2c08 87bd
00000130: 448d 90bd 7045 983b 3a1c 553c a444 703d
00000140: 7dfe cf3d 40b9 69bb 8afb 83bd f182 dbbc
00000150: 34cc 8dbd d09a 9e3d 44cd f5bd 8075 2fbd
00000160: 091d 98bc b4e1 c0bd 9010 893d 2748 12bd
00000170: 6248 6fbc 5ba8 34bb 478c d43d cfa0 31bb
00000180: 5884 c43c f8c4 803c 68cb d53c 8093 cbbd
00000190: 639d 88bd fa21 023c ab2a a83d 4c40 c43d
000001a0: e890 0f3d d9bd 8abd f8c2 7d3d aeef 883d
000001b0: d36c dabd b45a bbbc c854 dfbd 0d05 cebc
000001c0: a677 6c3d 28df 2abd 341d aa3d 22b9 9b3d
000001d0: 850f ec3d e741 aa3d b08d 453d 2864 073d
000001e0: 0ea8 6abd 067f 623d f800 d6bd 8227 9d3d
000001f0: a15e cd3d 26e7 b13d 8a68 c6bd 58cf 30bd
00000200: bc80 d9bd 4adb 7a3c 9226 d4bc b1e4 f3bd
00000210: b591 d4bd 25ee 48bd 6479 8a3d fed4 813c
00000220: 28ad a2bc 86a8 c83d 4851 553d 1192 993d
00000230: dba7 31bd e0f7 2abc 0c9f 193d 5f4f e6bd
00000240: ee0e 9bbc 76b6 873d 1937 023d 6bd3 a33c
00000250: 19b8 06bd 636c e03d 1753 efbd c6aa dbbd
00000260: a383 c33b 7c7f 52bd 4e98 613d 063c 6cbc
00000270: d635 97bd 0acb 78bd 00ff fa3c ccbc c73d
00000280: e627 643d 64c8 e63d 55d1 f9bd b0b3 833d
00000290: ac8f 18bd 72ba e23c 5c3d 00be d6b4 d8bd
000002a0: 1762 e5bc 1ecc 1b3d ee4b a1bd 0c8b efbd
000002b0: a4e4 4c3d a617 b03d b0c5 f8bc 9cd5 6ebd
000002c0: b067 1abd 76d3 bc3c f378 d0bd 9b88 563d
000002d0: 86c2 c9bd e24a 0c3d 88ba abbd 5a9c aabd
000002e0: 6c4a c4bd 8f0b f1bd 70f2 153a 7550 b0bd
000002f0: 4351 263d 56ac cdbd f068 f33c f2d1 eb3d
00000300: e276 6c3d 0029 afbb cc0d dcbd d3bd f13d
00000310: 0b58 ed3d d6a3 dc3d 505b 4b3d 564f 823d
00000320: 9fc9 68bd 89c2 b5bd 6a08 14bd da01 31bd
00000330: e08f a13c e289 4a3d eb74 4fbd 54b3 edbd
00000340: 07c5 a3bd 1ec6 cebd 0022 e9bd c3bf b53d
00000350: 827a 803d 6a72 86bc 0680 f33d 647f 9c3d
00000360: b32f 993b 3bbd 473d b61f 673a 69b5 b83c
00000370: efa9 7f3d 9b1c 04be 6cc9 d5bd ff98 d4bd
00000380: 0df1 b2bd 6a09 d3bd 4c08 cc3d d094 2bbd
00000390: ab4d bd3d 3451 bebd 035b 0dbd cec1 f7bd
000003a0: 8c0d 27bd db92 2d3d 57c7 2e3c bdd4 303d
000003b0: dc77 69bd f2bd 62bd c125 a9bd df0c ffbc
000003c0: ef0a 4cbc 426e f13d 294f 713d 8bcd acbd
000003d0: 9f2a f2bc b675 ecbd f065 cc3c a8e0 ad3d
000003e0: 005b 0e3c 0c51 ef3d 0f50 dbbd 601d 69bd
000003f0: 0472 b33d 5a2b 1cbd 98f4 65bd 6900 fe3d

bias f4 [128]
-0.0040218416 -0.0021372014 0.001382554 -0.0051667704 -0.0041497573 0.0027154486 -0.001098575 0.0
0.00091780047 -0.0066725714 0.0019556817 0.0 -0.005383287 -0.0024454903 0.0013430555 0.0
0.0 0.0006458943 0.00091224577 0.0 0.0 -0.00022044391 0.0013194544 0.0020605996
0.0007017765 -0.0030893749 -0.004914214 0.0061578522 0.002490128 0.0020741727 0.0013954663 -0.0023081219
0.00050850044 0.004631519 0.0019755038 -0.0037955951 -0.00037589404 -0.0035752794 0.0 -0.002612406
-0.0028906171 0.0014278158 0.0015864612 -0.0041383523 -0.0021561224 -0.0010035357 -0.0020839819 0.00076970225
0.0037322652 0.0 0.0022028503 -0.00050261966 -0.0029982997 0.0016694696 -0.003523579 -0.0023358855
-0.0018424421 -0.0010988779 0.0 0.0024719923 0.0061481274 0.00062923325 -0.003342578 -0.0021554232
0.0007336518 0.004337739 0.0 0.0 -0.0019086081 -0.00070906035 -0.0067001227 -0.004246404
0.00047150193 -0.0012803944 -0.003976462 0.00041232156 0.00039345238 0.0014879807 -0.0014363357 -0.0004080517
0.00095433404 0.00016149614 -0.004541709 0.0 0.0027345319 -0.0006163565 -0.00041886515 -0.0018997238
0.0 -0.0012961429 0.0 0.003328583 0.00077107624 -0.0037125899 0.0021950332 -0.00043579028
-3.3441895e-06 -0.0038965608 -0.002563206 0.0 -0.001468768 -0.006529176 0.0 0.0002222842
0.0 -0.0027167914 0.0 0.0047003054 0.0 0.0 -0.003794902 -0.0001988893
0.00046781913 -0.002753174 0.0 0.0 0.0 0.0 -0.0016391649 -0.007935759
0.0010009622 -0.001485608 -0.0025440997 0.0 -0.0031753834 -0.0032669692 0.0032810145 -0.00086909195
00000000: a7c9 83bb 4a10 0cbb d036 b53a 034e a9bb
00000010: b0fa 87bb abf5 313b 0ffe 8fba 0000 0000
00000020: 8c98 703a 96a5 dabb e52a 003b 0000 0000
00000030: 4966 b0bb 8544 20bb 7709 b03a 0000 0000
00000040: 0000 0000 3c51 293a c723 6f3a 0000 0000
00000050: 0000 0000 f626 67b9 8bf1 ac3a 200b 073b
00000060: 6cf7 373a 1c77 4abb 6a07 a1bb cfc7 c93b
00000070: 6a31 233b d8ee 073b 14e8 b63a dc43 17bb
00000080: e34c 053a ffc3 973b 7477 013b 85bf 78bb
00000090: a513 c5b9 3c4f 6abb 0000 0000 e634 2bbb
000000a0: 8270 3dbb 8c25 bb3a cef0 cf3a 049b 87bb
000000b0: bb4d 0dbb 1289 83ba 6a93 08bb d8c5 493a
000000c0: 0599 743b 0000 0000 b25d 103b 3cc2 03ba
000000d0: 1f7f 44bb 1bd2 da3a d9eb 66bb a815 19bb
000000e0: 197e f1ba 3908 90ba 0000 0000 2601 223b
000000f0: 3b76 c93b 21f3 243a 270f 5bbb 0042 0dbb
00000100: 8a52 403a 9823 8e3b 0000 0000 0000 0000
00000110: 432a faba 3ce0 39ba b48c dbbb 6b25 8bbb
00000120: eb33 f739 e8d2 a7ba fb4c 82bb dd2c d839
00000130: 4948 ce39 5908 c33a 6e43 bcba c6ef d5b9
00000140: 462c 7a3a 4a57 2939 9ed2 94bb 0000 0000
00000150: d535 333b fc92 21ba 219b dbb9 2700 f9ba
00000160: 0000 0000 57e3 a9ba 0000 0000 5b24 5a3b
00000170: 0d22 4a3a ec4e 73bb 8cda 0f3b c87a e4b9
00000180: bd6c 60b6 715d 7fbb 76fb 27bb 0000 0000
00000190: ad83 c0ba b3f2 d5bb 0000 0000 f614 6939
000001a0: 0000 0000 320c 32bb 0000 0000 0505 9a3b
000001b0: 0000 0000 0000 0000 e4b3 78bb f18c 50b9
000001c0: 9f45 f539 986e 34bb 0000 0000 0000 0000
000001d0: 0000 0000 0000 0000 3fd9 d6ba fc04 02bc
000001e0: b832 833a bcb8 c2ba e9ba 26bb 0000 0000
000001f0: 181a 50bb a61a 56bb 4a06 573b c6d3 63ba

weight f4 [64, 128]
0.05558659 -0.042431593 0.104021415 0.10471685 0.06042707 -0.13443503 -0.054701507 -0.091271505
-0.051606774 -0.09512377 -0.14232197 -0.048642367 -0.042948082 -0.1474399 -0.15088734 0.052067935
-0.07910917 -0.1487342 0.081438765 0.10841407 0.17219572 -0.1687343 0.06615403 -0.066727735
0.01754573 0.06845902 0.1629752 -0.00020956993 0.02011174 0.05779697 -0.122013435 -0.1640802
-0.008342877 0.1268156 -0.13407639 0.09202497 -0.15566581 -0.005903065 0.16252606 -0.12948276
0.14499418 0.011539474 0.04927969 0.17660795 0.0664307 -0.14374031 -0.024528876 -0.0710493
0.060439825 0.14393587 -0.15886055 -0.10261925 0.08488102 0.16955487 -0.091340736 0.027548209
0.06421515 0.040900424 -0.06991203 -0.033246234 -0.029034749 -0.14455785 0.06923254 -0.09297515
0.006767392 0.12999205 -0.16300148 0.050528273 0.07731728 -0.05716425 0.019567922 -0.15280092
-0.06741456 -0.07916341 -0.030194417 -0.100878336 -0.16213466 -0.13306272 -0.17225108 0.100646034
0.056147918 -0.060570054 -0.07094669 0.1659037 -0.030891746 0.17202003 -0.024187744 0.09015094
0.12295742 -0.14682253 -0.105725855 0.16613077 0.108388916 0.012042984 0.10193111 0.16736092
0.074571595 -0.106525525 0.14175116 0.04744737 -0.053067267 0.0739934 -0.0019367039 -0.11029682
-0.0042628795 -0.060904957 0.056811586 -0.012325823 -0.018077984 0.13856818 -0.118675515 0.15977342
-0.1402565 0.011195824 -0.15962179 0.1696677 -0.16635793 0.08519904 0.16026519 0.15869354
-0.07268991 0.12319301 -0.07084974 0.025868073 0.040595353 -0.0059511364 -0.11248861 0.10187252
0.12262598 -0.10177266 0.043520402 -0.023642411 -0.056964803 -0.116447195 -0.02753354 -0.006808445
0.1147208 0.0030208104 0.08949453 0.11815055 0.08542711 0.032694418 0.08006223 -0.052290857
0.05334665 -0.03466863 -0.01957292 0.16140194 0.027957946 0.11649315 0.08525587 -0.020623948
0.17575324 0.11640745 0.07899326 -0.08364782 -0.02377264 -0.13147789 -0.06819153 0.16984627
-0.083356254 -0.15117748 0.1916973 0.17565355 -0.09001754 0.15456682 -0.17363256 0.011663479
0.12658732 0.028201675 0.0703618 -0.0047527263 -0.08365444 0.13070734 0.10175689 0.12718911
0.14362252 0.09544359 0.16578883 -0.12414952 -0.051068448 -0.07265536 0.1638483 0.1743677
0.11479213 -0.04077176 0.049886405 -0.17088851 0.032362096 0.079924 -0.1443475 -0.16101049
-0.11585425 -0.016805476 0.045254827 0.0074153095 -0.17530312 -0.093057916 -0.0019617588 -0.078702584
-0.12028844 -0.06614374 -0.003378552 0.18343738 0.066343926 -0.15809184 -0.13321482 0.10851645
0.05752552 0.14297447 0.013277455 0.023947671 -0.024205066 0.048217524 0.03553843 -0.12361672
0.019307598 0.16083997 0.13190813 0.11482474 -0.072811805 -0.013357305 0.032170456 -0.12024699
-0.15382104 0.17542514 0.08987192 -0.13602088 -0.11881015 -0.051532436 -0.09422431 0.037287623
-0.044408068 0.0915463 0.071181014 -0.050316874 0.073150575 -0.095576175 0.14829484 -0.11197396
0.032425813 0.13246763 0.12106477 -0.10304015 -0.13458875 0.04884696 0.009874336 0.05456196
-0.052649986 0.024613405 -0.023008617 -0.039130777 0.090749785 0.17018048 -0.21187928 -0.046281606
00000000: c4ae 633d c0cc 2dbd 2e09 d53d ca75 d63d
00000010: 6082 773d 56a9 09be b00e 60bd 8eec babd
00000020: a061 53bd 40d0 c2bd dabc 11be 383d 47bd
00000030: 54ea 2fbd 7cfa 16be 3682 1abe 3045 553d
00000040: fd03 a2bd c74d 18be 5ec9 a63d 3208 de3d
00000050: 1354 303e afc8 2cbe c47b 873d 8da8 88bd
00000060: 10bc 8f3c 3e34 8c3d f9e2 263e 00c0 5bb9
00000070: 60c1 a43c 84bc 6c3d 2ee2 f9bd a404 28be
00000080: 90b0 08bc f3db 013e 524b 09be 9677 bc3d
00000090: dc66 1fbe 806e c1bb 3b6d 263e 2197 04be
000000a0: 5b79 143e 1010 3d3c 80d9 493d b7d8 343e
000000b0: d20c 883d a930 13be c8f0 c8bc 4c82 91bd
000000c0: c08f 773d ed63 133e 57ac 22be 0b2a d2bd
000000d0: 1ad6 ad3d cb9f 2d3e da10 bbbd c8ac e13c
000000e0: 3c83 833d 3487 273d 0a2e 8fbd 342d 08bd
000000f0: 48da edbc f906 14be cac9 8d3d c169 bebd
00000100: 00c1 dd3b a31c 053e dce9 26be bcf6 4e3d
00000110: 8658 9e3d 1025 6abd e84c a03c d877 1cbe
00000120: a510 8abd 6d20 a2bd 485a f7bc 4d99 cebd
00000130: a106 26be 9841 08be 9662 30be 821f ce3d
00000140: 5cfb 653d 4e18 78bd 804c 91bd a9e2 293e
00000150: b010 fdbc 0526 303e 6025 c6bc 0ea1 b83d
00000160: 1ad1 fb3d a558 16be cc86 d8bd 2f1e 2a3e
00000170: 02fb dd3d f04f 453c 42c1 d03d a960 2b3e
00000180: feb8 983d 0e2a dabd 3727 113e 2c58 423d
00000190: 105d 59bd da89 973d 00d9 fdba 4de3 e1bd
000001a0: a0af 8bbb 7a77 79bd 44b3 683d 40f2 49bc
000001b0: 4818 94bc d1e4 0d3e 260c f3bd a59b 233e
000001c0: 669f 0fbe b06e 373c e573 23be 5fbd 2d3e
000001d0: bc59 2abe d67c ae3d 8f1c 243e 8f80 223e
000001e0: 73de 94bd 9e4c fc3d ab19 91bd 48e9 d33c
000001f0: 5047 263d c001 c3bb 6e60 e6bd 8aa2 d03d
00000200: 5423 fb3d 2f6e d0bd 7342 323d bbad c1bc
00000210: ed53 69bd de7b eebd 058e e1bc 6019 dfbb
00000220: bdf2 ea3d caf8 453b e848 b73d eaf8 f13d
00000230: 69f4 ae3d 95ea 053d abf7 a33d f02e 56bd
00000240: 0482 5a3d b200 0ebd 6357 a0bc 8d46 253e
00000250: 1008 e53c f693 ee3d a19a ae3d 8ef3 a8bc
00000260: a8f8 333e 0767 ee3d 38c7 a13d 8c4f abbd
00000270: d7be c2bc 24a2 06be 00a8 8bbd 2eec 2d3e
00000280: afb6 aabd 45ce 1abe 4c4c 443e 86de 333e
00000290: 1e5b b8bd c446 1e3e bccc 31be 2d18 3f3c
000002a0: 1ba0 013e 3307 e73c d919 903d c2bc 9bbb
000002b0: 0553 abbd 25d8 053e eb65 d03d dd3d 023e
000002c0: c811 133e ee77 c33d 8cc4 293e 1b42 febd
000002d0: 262d 51bd 55cc 94bd d9c7 273e 728d 323e
000002e0: 2318 eb3d 4a00 27bd b055 4c3d 66fd 2ebe
000002f0: 1e8e 043d 32af a33d d5cf 13be efdf 24be
00000300: fe44 edbd a3ab 89bc 205d 393d 20fc f23b
00000310: a982 33be 2695 bebd da90 00bb d22e a1bd
00000320: c959 f6bd 5f76 87bd b26a 5dbb 02d7 3b3e
00000330: 53df 873d d4e2 21be 7769 08be df3d de3d
00000340: e19f 6b3d e667 123e af89 593c e82d c43c
00000350: b449 c6bc bd7f 453d bf90 113d c32a fdbd
00000360: f82a 9e3c 3cb3 243e ed12 073e 3c29 eb3d
00000370: 5b1e 95bd 99d8 5abc 2bc5 033d 0e44 f6bd
00000380: 4383 1dbe a6a2 333e c50e b83d 0f49 0bbe
00000390: bc52 f3bd ad13 53bd adf8 c0bd e8ba 183d
000003a0: 3ce5 35bd a07c bb3d 5ac7 913d 1119 4ebd
000003b0: f8cf 953d 71bd c3bd 9ada 173e 9b52 e5bd
000003c0: eed0 043d 98a5 073e cef0 f73d b706 d3bd
000003d0: a2d1 09be c013 483d f8c7 213c 5d7c 5f3d
000003e0: 83a7 57bd 0da2 c93c 917c bcbc 9847 20bd
000003f0: 06db b93d cb43 2e3e e2f6 58be c891 3dbd

bias f4 [64]
0.0 -0.0016023566 -0.00018623607 0.0 0.002647407 0.003209338 0.0 -0.004341066
0.0 0.00068176613 -0.0015745811 0.0 -0.00019851833 0.0 0.001958332 -0.0052262964
0.004018845 0.0 0.0 0.0029801282 -0.0028396393 -0.009097866 0.0 -0.0035304883
0.00032103134 -0.006483845 -0.0012640114 0.0017961259 -0.0012940969 -0.0011529186 -0.002001555 -0.0013179416
-0.0021853407 0.0016584864 0.0010241868 0.0 -0.008745117 -0.0018052699 -0.003421858 0.0
0.0 0.0016582463 -0.0004465272 0.0 0.0 0.0 0.00287181 -0.003370782
-0.0047174203 -0.002428016 0.0 -0.0012758757 0.0037785736 -0.0019115622 -0.0016909514 0.0
0.0024608178 0.0036024777 0.00035206345 -0.00053191953 0.0031058732 -0.007640803 0.0 -0.00013631112
00000000: 0000 0000 2a06 d2ba 5d48 43b9 0000 0000
00000010: 1e80 2d3b c253 523b 0000 0000 803f 8ebb
00000020: 0000 0000 8db8 323a 2d62 ceba 0000 0000
00000030: 5c29 50b9 0000 0000 5c57 003b 5a41 abbb
00000040: 84b0 833b 0000 0000 0000 0000 414e 433b
00000050: 3e19 3abb 370f 15bc 0000 0000 c45f 67bb
00000060: 1950 a839 6f76 d4bb 2fad a5ba fc6b eb3a
00000070: b09e a9ba 871d 97ba 852c 03bb c8be acba
00000080: ef37 0fbb 9261 d93a 023e 863a 0000 0000
00000090: ae47 0fbc ce9e ecba 4041 60bb 0000 0000
000000a0: 0000 0000 8359 d93a de1b eab9 0000 0000
000000b0: 0000 0000 0000 0000 fa34 3c3b 56e8 5cbb
000000c0: 9794 9abb 591f 1fbb 0000 0000 493b a7ba
000000d0: f2a1 773b 628d faba eaa2 ddba 0000 0000
000000e0: ac45 213b 8c17 6c3b 2895 b839 8470 0bba
000000f0: e88b 4b3b b45f fabb 0000 0000 bdee 0eb9

weight f4 [6, 64]
0.07729751 -0.15439723 -0.26447046 0.14383176 -0.0992718 -0.0028194187 0.16820222 -0.24559465
-0.09064454 -0.07084425 0.12354715 0.18861777 0.28738296 -0.15431313 -0.07197567 0.05416566
0.22510545 -0.028771818 0.20075327 -0.1103735 -0.14816412 -0.27618638 0.1379138 0.16715832
-0.15553944 0.11048862 0.22268175 -0.15009715 0.1676285 0.15658142 0.24080302 -0.22443777
-0.11066687 -0.2709322 0.18560885 -0.23566115 -0.26766074 -0.19098707 0.09221701 -0.1610035
0.09063542 -0.061939795 -0.14764331 -0.24330623 0.021398842 -0.059394225 0.0057606734 -0.11071685
-0.04679867 0.107096955 0.2708522 0.25496542 -0.0034894017 -0.016980192 0.27562818 0.2162925
-0.04077682 -0.15424834 0.08122212 0.28600103 0.19474094 0.2281509 -0.19082193 -0.31458825
0.18639308 0.09200866 0.15616797 0.09799975 -0.30434167 0.08851172 -0.28403795 -0.12447762
-0.2012415 0.21702647 -0.17012633 0.15590546 0.20044473 -0.12360485 0.16249299 0.08280818
0.052286547 0.25457144 -0.07549834 0.3095034 0.015422513 -0.26659644 -0.14429004 -0.11770382
0.25922564 -0.19121975 -0.2567778 -0.17525357 -0.129024 0.056985646 -0.18136625 0.03337642
0.14108057 0.2523708 -0.048115056 0.015042961 0.048807926 0.21483673 0.032081626 -0.2738326
-0.2059162 -0.06720978 -0.2550423 0.16164914 0.09015226 0.16425323 0.039305344 -0.01651068
-0.13198052 0.26411283 -0.06144835 -0.030376887 -0.09337081 0.21878222 0.2155782 -0.16654974
-0.11584478 0.09684766 -0.048199873 0.1941273 -0.0056352927 -0.2649622 0.22080374 0.078704394
0.14382207 -0.16657373 -0.086521246 0.111126125 0.2033611 0.27783632 -0.073494256 0.11522298
0.02732861 0.16294494 0.08198358 0.18170801 0.17144012 0.27151012 0.01301197 -0.04361352
-0.14630052 -0.25615585 0.22439635 0.23126565 0.273734 -0.057595316 0.09346002 0.282168
-0.21793471 0.02502453 -0.06178455 -0.2927623 -0.12586059 -0.09216159 0.14693694 -0.06093157
0.16736282 0.11819296 -0.036507696 0.18768114 0.16136348 0.23192357 -0.14449655 -0.070090026
0.06793049 -0.17039205 0.14359021 0.12873906 -0.16618101 -0.05292642 -0.18374722 0.21463151
0.039925728 0.19578701 0.15296862 -0.051807113 -0.08408838 0.16158281 0.15130703 0.0185377
-0.26411217 -0.17762975 -0.22022241 0.24377951 -0.19895886 0.21079789 -0.06314646 0.049241684
-0.1263017 -0.2932221 -0.15434201 0.04450956 -0.10328841 -0.1089503 0.20265457 0.11403725
0.25649667 0.1259216 0.0962447 0.11026901 -0.04874296 -0.28026974 -0.20437743 0.2021193
0.16146657 0.050285637 -0.009238422 0.1467733 -0.11623095 -0.28237385 -0.20522082 -0.061181203
-0.05492539 0.08769527 0.021514893 -0.054509647 -0.13174978 -0.059557512 -0.18909775 -0.22505201
-0.2666052 0.22838825 -0.010486628 0.03512597 -0.19341432 -0.01957654 -0.12907563 -0.07487434
-0.17465603 -0.025279325 0.23084766 0.25175118 0.2670673 0.26422733 0.04965042 0.04083131
-0.20892027 -0.22280888 0.016323686 -0.23972222 0.12662567 -0.18649013 -0.24471071 -0.2555291
0.09882878 0.22971596 0.19784951 -0.132244 0.19360752 0.04023442 -0.21892455 -0.24885109
00000000: 284e 9e3d 4f1a 1ebe ac68 87be a248 133e
00000010: 034f cbbd ffc5 38bb 343d 2c3e 2a7d 7bbe
00000020: d8a3 b9bd ca16 91bd 4a06 fd3d 0425 413e
00000030: dc23 933e 4304 1ebe fb67 93bd d0dc 5d3d
00000040: 0b82 663e e0b2 ebbc 4492 4d3e 800b e2bd
00000050: 56b8 17be 4d68 8dbe 4639 0d3e 8d2b 2b3e
00000060: bb45 1fbe dc47 e23d af06 643e 11b3 19be
00000070: cea6 2b3e e156 203e 1195 763e 04d3 65be
00000080: 50a5 e2bd a0b7 8abe 3f10 3e3e 2851 71be
00000090: d40a 89be 1d92 43be 46dc bc3d 1ade 24be
000000a0: 109f b93d 95b4 7dbd cf2f 17be 4525 79be
000000b0: a04c af3c 5c47 73bd 08c4 bc3b 84bf e2bd
000000c0: f6af 3fbd a655 db3d 24ad 8a3e d48a 823e
000000d0: 72ae 64bb 0b1a 8bbc 231f 8d3e c87b 5d3e
000000e0: 9805 27bd 47f3 1dbe c857 a63d ba6e 923e
000000f0: 2b6a 473e 64a0 693e d366 43be b611 a1be
00000100: d4dd 3e3e 096f bc3d 7fea 1f3e 18b4 c83d
00000110: acd2 9bbe a245 b53d 6c6d 91be 1fee febd
00000120: 4012 4ebe 303c 5e3e 9935 2ebe aea5 1f3e
00000130: 6241 4d3e 8a24 fdbd 9064 263e 5697 a93d
00000140: 6b2a 563d 3057 823e e09e 9abd 3b77 9e3e
00000150: b5ae 7c3c 547f 88be c5c0 13be b30e f1bd
00000160: 39b9 843e 1ccf 43be 6178 83be ac75 33be
00000170: de1e 04be c869 693d 13b8 39be b7b5 083d
00000180: 6d77 103e bf36 813e 4b14 45bd c076 763c
00000190: d2ea 473d 29fe 5b3e 0668 033d c933 8cbe
000001a0: b2db 52be 48a5 89bd e894 82be 5a87 253e
000001b0: c0a1 b83d 0032 283e a4fe 203d 6841 87bc
000001c0: e725 07be cc39 873e 44b1 7bbd f3d8 f8bc
000001d0: 3239 bfbd 7208 603e 88c0 5c3e 048c 2abe
000001e0: 0740 edbd 1158 c63d 3b6d 45bd 4fc9 463e
000001f0: 43a8 b8bb 20a9 87be 601a 623e c52f a13d
00000200: 1846 133e 4e92 2abe 0d32 b1bd 1896 e33d
00000210: e43d 503e 9040 8e3e 2884 96bd 07fa eb3d
00000220: 40e0 df3c 0adb 263e 02e7 a73d aa11 3a3e
00000230: 008e 2f3e 6003 8b3e 2830 553c 17a4 32bd
00000240: cecf 15be dc26 83be 28c8 653e e7d0 6c3e
00000250: dd26 8c3e 11e9 6bbd f867 bf3d 5378 903e
00000260: 472a 5fbe 3e00 cd3c cc11 7dbd f1e4 95be
00000270: 99e1 00be 37bf bcbd a376 163e 6293 79bd
00000280: 2961 2b3e 270f f23d 1889 15bd 7c2f 403e
00000290: 783c 253e 5f7d 6d3e e7f6 13be 5c8b 8fbd
000002a0: 241f 8b3d 417b 2ebe 5009 133e 2cd4 033e
000002b0: 5b2b 2abe 60c9 58bd 3b28 3cbe 5dc8 5b3e
000002c0: 2989 233d 647c 483e cea3 1c3e b233 54bd
000002d0: 8736 acbd f775 253e 3bf0 1a3e 60dc 973c
000002e0: b639 87be 93e4 35be fc81 61be 56a1 793e
000002f0: dfbb 4bbe 67db 573e ee52 81bd a6b1 493d
00000300: 3c55 01be 3521 96be d50b 1ebe a84f 363d
00000310: e088 d3bd 5621 dfbd ae84 4f3e 5d8c e93d
00000320: 8853 833e 98f1 003e f11b c53d b8d4 e13d
00000330: b3a6 47bd 847f 8fbe 5148 51be 5df8 4e3e
00000340: 7e57 253e 50f8 4d3d c05c 17bc bd4b 163e
00000350: 7e0a eebd 4e93 90be 6825 52be 2499 7abd
00000360: 72f9 60bd 9499 b33d 0040 b03c 8245 5fbd
00000370: 6ae9 06be 94f2 73bd d7a2 41be 0974 66be
00000380: 7a80 88be 9cde 693e 1bd0 2bbc 40e0 0f3d
00000390: 670e 46be fb5e a0bc 672c 04be b857 99bd
000003a0: 08d9 32be 9616 cfbc 5463 6c3e 88e5 803e
000003b0: 0cbd 883e ce48 873e 3d5e 4b3d bb3e 273d
000003c0: 32ef 55be 0328 64be 40b9 853c be79 75be
000003d0: 29aa 013e 45f7 3ebe 7295 7abe b6d4 82be
000003e0: be66 ca3d a93a 6b3e 1099 4a3e f96a 07be
000003f0: 0d41 463e d9cc 243d c22d 60be d2d2 7ebe

bias f4 [6]
0.0033175608 0.0017769171 -0.002976604 0.0030901958 0.00023158538 0.0028063832
00000000: 6f6b 593b 72e7 e83a 2113 43bb e284 4a3b
00000010: bad5 7239 4ceb 373b
