hw3/data/dqn_Pong_double_dqn_Pong-ram-v0_12-11-2018_17-46-17/0/model.pkl (torch_old, 306406 bytes, 8 tensors)

weight f4 [256, 128]
000000 0d 83 ee bd b0 a3 b5 3d 67 45 82 3c ce 81 e6 bd
       -0.1164609 0.088691115 0.015902234 -0.11255227
000010 76 81 1d 3c b6 02 e9 bc 50 e1 49 3c d2 d9 d6 3c
       0.009613385 -0.028443675 0.012321785 0.026226912
000020 18 c9 98 bd e6 69 ff bd 0a 85 99 3d 10 00 0b 3d
       -0.074602306 -0.124713704 0.07496078 0.033935606
000030 60 9a 68 bd fc f3 d7 bd 8b 99 9c bd aa 90 fb 3c
       -0.05678785 -0.10544583 -0.076464735 0.03070863
000040 c9 1f 87 3d ad 71 c5 3d 81 92 b4 3d 9e c0 ab bd
       0.065978594 0.096408226 0.08817006 -0.08386348
000050 3d 3d 84 bd ff 77 8b bb 40 f5 f7 3c 74 66 be bd
       -0.06456993 -0.004256248 0.030268312 -0.09296885
000060 8b 86 a0 bd 9c ad fb bd 53 b9 b7 3d fb a0 84 3d
       -0.07838162 -0.12288973 0.08970895 0.06476017
000070 e8 8f 3f bd fc 8f ce 39 31 df 81 bc 95 4c 6f bb
       -0.0467681 0.0003939866 -0.015853496 -0.0036514152
000080 af 93 91 3d a0 a1 8b bd 84 65 a6 3d f6 72 24 bd
       0.071082465 -0.06817937 0.08124831 -0.040148698
000090 03 e5 52 3d 1d 6c 3e 3d 78 e1 93 3d e5 04 9e 3d
       0.051487934 0.046489824 0.07220739 0.07715777
0000a0 bc 58 ed bc fb d0 df bc 83 3c f8 bc f1 65 bd bb
       -0.028972976 -0.02732133 -0.030302292 -0.0057799746
0000b0 22 cd b2 bc 52 92 fe bc 19 75 db 3d c8 b3 4f 3d
       -0.02182633 -0.03107563 0.10715694 0.050708562
0000c0 93 ce c6 3c 1c 3c bc bd c2 1c 85 3d bd cf bc bd
       0.024268424 -0.091911525 0.06499626 -0.092193104
0000d0 ac 60 72 bd a2 24 8a bd e4 c6 97 bc ac e5 65 3d
       -0.059174225 -0.067452684 -0.018527456 0.056127235
0000e0 17 22 91 bc 32 6a d3 bd e3 e8 09 3d ce 17 a5 3d
       -0.01771645 -0.103229895 0.033669364 0.08061181
0000f0 95 b6 7a bb 56 a7 7c 3d 1c cf bb 3d c7 66 91 bd
       -0.00382558 0.06168302 0.09170362 -0.07099681
000100 cc 0d ef bd 5d 7a 77 3d a8 d1 87 bd f4 9a 0d 3d
       -0.116725534 0.06041943 -0.06631786 0.034571603
000110 29 58 e7 bd bf 07 b8 3d b5 a6 ec 3d 45 85 09 bd
       -0.11296112 0.089858525 0.11555234 -0.03357436
000120 9c a6 58 3d 26 3f f5 bd 74 d2 b3 3c ca 3a cf bd
       0.052893266 -0.11974935 0.021950938 -0.10118635
000130 c7 92 c6 3d 16 ab 84 3d 18 63 8f 3d 90 63 72 bd
       0.09695964 0.064779446 0.070013225 -0.05917698
000140 4c 74 a6 bd 38 23 e1 3c bc f4 8c 3d 44 8f 24 3d
       -0.081276506 0.027482614 0.06882617 0.04017569
000150 c8 1b a5 bc 0c 0a 8f 3d 96 f7 9a 3d 38 62 fe bc
       -0.020154849 0.06984338 0.075667545 -0.031052694
000160 2c ee 3e 3d 34 a3 44 3d 20 bc 8d bb d8 72 59 bd
       0.046613857 0.048007205 -0.0043254048 -0.05308804
000170 42 f1 a4 bd 00 c7 87 3a 72 b4 b0 bd 04 bc 7e 3d
       -0.08053829 0.0010358989 -0.08628167 0.062191024
000180 a4 e0 9f bd 68 d3 44 3d a4 b9 9c 3d a0 3c 94 bc
       -0.07806519 0.048053175 0.07652596 -0.018095315
000190 3a 57 ee 3d 64 9e ec bd 64 9c 3d bd 2e 5a cc 3d
       0.11637731 -0.11553648 -0.046291724 0.09978138
0001a0 9c a4 be 3d ec 69 5c bd 00 83 cf ba 68 8e 6f 3d
       0.093087405 -0.053811952 -0.0015831888 0.05848542
0001b0 12 20 db 3d a0 ba 93 3d c6 1a dd bd d0 8c 9b bd
       0.10699476 0.0721333 -0.10796122 -0.07595217
0001c0 88 26 88 3d a4 6a 98 bd 34 4c 93 bd 54 2b ae bd
       0.06647974 -0.07442215 -0.07192269 -0.08504358
0001d0 08 6d 76 bd 2a 02 8b 3d e8 ed fe bd 18 a5 88 3c
       -0.060162574 0.06787522 -0.12447721 0.016680285
0001e0 e8 25 89 3c 0e 1f f8 bd d9 44 e0 bd 37 e5 0e 3d
       0.016741708 -0.12115298 -0.10950632 0.034886565
0001f0 62 ac 04 be 46 45 01 be e6 f1 81 bd c1 76 27 3c
       -0.12956384 -0.12624082 -0.063449666 0.010221184
000200 80 33 d7 3a 20 e4 70 bc 20 c2 1e 3c 88 5f f0 bc
       0.0016418546 -0.014702827 0.009689838 -0.029342428
000210 ce ec e2 bd 68 04 90 3d d4 9c ca bd 30 06 b9 3d
       -0.11080323 0.070320904 -0.09893194 0.09034383
000220 00 11 46 3b 04 51 30 3d a2 06 92 bd f4 56 c1 bd
       0.0030222535 0.043046013 -0.07130171 -0.09440413
000230 80 d8 db bb a0 77 01 bd bc 25 fd bd c0 98 f5 3b
       -0.0067091584 -0.031608224 -0.12360713 0.007495016
000240 84 40 97 bd 4c fb 60 3d 68 89 a2 3c 60 a8 83 bb
       -0.07385352 0.054927155 0.019840911 -0.0040178746
000250 9a 22 95 3d 16 79 90 bd 68 78 fc bc d8 76 43 bd
       0.0728199 -0.07054345 -0.030819133 -0.04772076
000260 d8 69 b9 bc f0 1d d7 bd 54 eb d5 3d b0 9a 38 bd
       -0.022633478 -0.10503757 0.10445276 -0.045069396
000270 82 bd c1 bd 98 c8 c0 3d f4 21 fb bd dc 19 9e bd
       -0.09459974 0.0941326 -0.122623354 -0.07719776
000280 88 a5 f3 bc 52 fe dc bd e8 ea d8 3d a8 14 cf 3d
       -0.029742017 -0.10790695 0.1059168 0.10111362
000290 ac 70 e4 3d a0 95 a0 bd b0 3b ec 3d b8 03 5f 3d
       0.11154303 -0.07841039 0.11534822 0.054446906
0002a0 00 50 3d b9 44 cb f1 3d c2 d7 bf 3d 10 81 45 bc
       -0.00018054247 0.11806348 0.093673244 -0.012054697
0002b0 3e 87 a9 bd 20 2b c6 3c 3a 8a f2 bd 00 cf e2 ba
       -0.082777485 0.024190485 -0.11842771 -0.0017304122
0002c0 26 7b d1 bd 14 c5 41 bd 98 31 4e bd 40 f3 93 bd
       -0.10228567 -0.04730709 -0.050340265 -0.07224131
0002d0 e2 28 8d 3d 36 14 a4 3d dc 34 ad 3d 20 2b e6 3d
       0.068925634 0.080116674 0.08457348 0.11238694
0002e0 3e d2 97 bd 22 14 b2 3d 64 37 8e bd 28 7b ff bd
       -0.074131474 0.08695246 -0.06944159 -0.12474662
0002f0 c0 e2 0d 3d 04 58 73 3d 9e 93 c8 bd 00 88 aa bd
       0.034640074 0.05941011 -0.09793781 -0.08326721
000300 84 6a 46 3d a8 57 ad 3d b4 91 18 bd 40 5f b4 bb
       0.048441425 0.08463985 -0.03724833 -0.0055045187
000310 64 e9 cb bd ee 34 93 3d ac f9 b5 3d 36 35 a9 3d
       -0.09956625 0.0718783 0.08885512 0.08262102
000320 00 c2 5f bb e8 13 8d 3d 30 18 c4 bc 00 9d 80 bb
       -0.0034142733 0.068885624 -0.023937315 -0.003924966
000330 58 2f af 3c 9c be 24 3d 40 f7 8b 3c 78 07 16 bd
       0.02138488 0.04022084 0.017085671 -0.036628217
000340 24 1f 92 bd de d0 af 3d b6 d8 ae bd 00 ee 25 3a
       -0.07134846 0.0858476 -0.08537428 0.0006329715
000350 4c fd 02 bd 64 ec ee 3d 78 cc 93 3d 28 de 31 3d
       -0.031979844 0.11666182 0.07216734 0.043424755
000360 70 3c d5 3c 06 0d d4 bd e0 8e 62 bd fc 9f c1 3d
       0.026029795 -0.103540465 -0.055312037 0.09454343
000370 40 62 53 3b 90 1e 89 3c b2 5a a2 3d 50 70 7b bd
       0.0032254606 0.016738206 0.07927455 -0.061386406
000380 28 bb 15 bd f8 ea 9b bc 70 8c 90 bc 78 32 5c 3d
       -0.03655544 -0.01903294 -0.01764509 0.05375907
000390 10 e5 08 bd b0 6b 2f 3d a0 ac 5a 3d e8 5a d3 bd
       -0.033421576 0.04282731 0.053387284 -0.10320073
0003a0 a8 c0 48 bd 48 b9 1a 3d 28 9a 3d 3d 6c 27 15 bd
       -0.049011856 0.037774354 0.046289593 -0.03641455
0003b0 5c 02 b1 bd 00 7e dc 3b 5c af 78 3d bc 44 ac bd
       -0.08643028 0.0067288876 0.06071411 -0.084115475
0003c0 0a b9 c3 3d 20 fb 27 bc d4 53 d4 3d 54 77 ab 3d
       0.09556778 -0.010252744 0.103675514 0.083723694
0003d0 ec 56 d3 bd 00 f8 45 ba ee 2e 80 bd 9e 6f ff bd
       -0.103193134 -0.00075519085 -0.06258951 -0.12472461
0003e0 50 09 69 3c 74 5b f1 bd 02 56 8f bd 8c ed 90 3d
       0.014223412 -0.117850214 -0.069988266 0.070765585
0003f0 0c ba c3 3d 40 0c 26 bd 1c ba ff bd 10 2f 6a bc
       0.0955697 -0.040539026 -0.124866694 -0.014293447

bias f4 [256]
000000 96 e8 03 bc 00 00 00 00 3c 40 e8 3b 42 ff 4a 3c
       -0.008051058 0.0 0.0070877355 0.01238996
000010 b7 a9 0f bb f3 63 96 ba 53 02 42 bc 16 e4 2e 3c
       -0.0021921226 -0.0011473879 -0.011841374 0.010674497
000020 5f 9d a0 3b de 48 60 bb 18 62 a3 ba ff 01 b1 3b
       0.0049015726 -0.003422312 -0.0012465147 0.0054018493
000030 13 57 5d bc 00 00 00 00 00 00 00 00 20 dd aa bc
       -0.01350953 0.0 0.0 -0.020857394
000040 be 24 a3 bc 3e 43 b6 bb b2 ab 1d bb 00 00 00 00
       -0.019914981 -0.005562215 -0.0024058637 0.0
000050 00 00 00 00 2f c0 7c bc 52 c5 0f bc e9 b5 bc bc
       0.0 -0.0154266795 -0.008775072 -0.02303596
000060 47 37 6f bb 94 d8 93 bc b9 b6 d9 3a 71 6f cc 3b
       -0.0036501454 -0.018047608 0.0016610242 0.006238871
000070 eb cc ef bb 00 00 00 00 22 3e 8b 3c 23 42 74 3c
       -0.0073181293 0.0 0.0169974 0.014908346
000080 c1 87 84 ba a3 54 91 bb 72 b4 af 3b 17 b2 01 bd
       -0.0010111259 -0.0044351383 0.005362087 -0.03166398
000090 f0 ca 41 3c 00 00 00 00 80 54 12 bd 00 00 00 00
       0.011828169 0.0 -0.035725117 0.0
0000a0 00 00 00 00 00 00 00 00 00 00 00 00 4a 8f 3c bc
       0.0 0.0 0.0 -0.011508772
0000b0 dc a2 e5 bb e1 23 bb bc 00 00 00 00 d6 8c 96 bc
       -0.0070079397 -0.022844257 0.0 -0.018377703
0000c0 6a b2 c5 3a de 67 a3 bc cc bf 26 3b 27 bf eb ba
       0.0015083079 -0.019946989 0.002544391 -0.0017986045
0000d0 71 58 68 bc 72 46 43 bc 7d e9 47 bc 0c 88 4e bc
       -0.014181242 -0.011918651 -0.012201664 -0.012605678
0000e0 4c b5 ae bc 00 00 00 00 71 fc 0f bc f0 70 86 ba
       -0.021326683 0.0 -0.008788214 -0.0010257047
0000f0 b2 e4 16 3c d2 ea a4 bb 00 00 00 00 af 3f 38 3c
       0.009209799 -0.0050328756 0.0 0.011245652
000100 00 00 00 00 3d 39 d1 bc 00 00 00 00 e6 42 fd bc
       0.0 -0.025539989 0.0 -0.030915689
000110 4e 0b 9d bb 00 00 00 00 c2 ff 14 bc 00 00 00 00
       -0.0047926074 0.0 -0.009094181 0.0
000120 00 00 00 00 80 89 23 bb 3d 93 2f bc 00 00 00 00
       0.0 -0.0024953783 -0.010716257 0.0
000130 41 14 2a ba d0 ac 50 3a cd 2c 64 bc 00 00 00 00
       -0.00064880034 0.00079603214 -0.013926697 0.0
000140 d1 2f f7 3a 00 00 00 00 0f 37 5b bc 05 6c 05 bc
       0.0018858855 0.0 -0.013379826 -0.00814343
000150 de a5 26 bc 00 00 00 00 00 00 00 00 e8 0d 69 bc
       -0.010171382 0.0 0.0 -0.014224507
000160 4b 07 9d bc 1e b5 fb b9 2d 72 19 ba 6c e9 c1 ba
       -0.019168517 -0.00048009394 -0.00058535003 -0.0014794297
000170 f4 b2 97 bb d5 d3 73 3c 5e e8 c4 3a 22 2d a5 bc
       -0.004629487 0.014882048 0.0015022864 -0.020163123
000180 00 00 00 00 00 00 00 00 cb 13 d1 bc 00 00 00 00
       0.0 0.0 -0.025522133 0.0
000190 0f a5 58 bc fa 11 c2 bc fc f6 e6 bc 00 00 00 00
       -0.013222947 -0.023690213 -0.028193943 0.0
0001a0 00 00 00 00 8d d5 d6 3b 22 f4 17 bc be 2f f5 3b
       0.0 0.006556219 -0.009274514 0.007482498
0001b0 19 86 0e bc bb 75 ed bb 00 00 00 00 4c c1 43 3c
       -0.008698964 -0.0072467006 0.0 0.011947941
0001c0 53 51 09 bb 03 3e a1 3c a3 a5 a2 3c d2 5e e3 bc
       -0.0020953014 0.01968289 0.019854372 -0.027755175
0001d0 fd 94 19 bd 8a b3 9e bc 00 00 00 00 fa 76 31 bb
       -0.037495602 -0.01937272 0.0 -0.0027078972
0001e0 b4 c7 d9 bb 96 b7 e2 ba 00 00 00 00 99 77 26 bc
       -0.006646121 -0.0017297145 0.0 -0.01016035
0001f0 cd 99 84 bc 00 00 00 00 79 28 99 bc e4 c2 aa bb
       -0.01618662 0.0 -0.018696057 -0.005211221
000200 6b 55 e6 bc 90 1d c9 bc 83 7b 5d 3c f9 d7 a8 3c
       -0.028116902 -0.02455023 0.013518217 0.020610796
000210 28 d4 74 bc 9c 3a d6 3c ea 7a d2 bb fd 06 db 3a
       -0.01494316 0.026150994 -0.006423344 0.0016710457
000220 4d 0a 81 3c 91 79 1f 3c 00 00 00 00 ca b1 42 bc
       0.015751982 0.0097335735 0.0 -0.0118832085
000230 f5 11 b8 3b 00 00 00 00 38 bd 07 bd 74 c2 b1 3b
       0.005617375 0.0 -0.033139437 0.005424792
000240 4e e2 ce bc b7 49 bf 3c 92 68 97 3c f6 61 8e 3b
       -0.025254395 0.02335058 0.01848248 0.004345174
000250 64 49 a2 bb a8 2f a2 ba 0d 0d 35 bc 00 00 00 00
       -0.0049525965 -0.0012373822 -0.011050475 0.0
000260 be d6 e0 bb 00 00 00 00 50 56 fc 3b 86 fb 34 bc
       -0.0068615368 0.0 0.007700719 -0.011046296
000270 00 00 00 00 5a 1c 85 bc 00 00 00 00 00 00 00 00
       0.0 -0.01624887 0.0 0.0
000280 39 6f e2 3c ad 7d cb bc 9b 5d 89 bb f4 33 99 bc
       0.027640926 -0.0248402 -0.004192067 -0.018701531
000290 00 00 00 00 0c e1 f3 bb a8 3d 8a bc 64 1d 51 bc
       0.0 -0.007442599 -0.016875103 -0.012763355
0002a0 3f 93 20 bb 42 f8 cc bc 00 00 00 00 00 00 00 00
       -0.0024501828 -0.025020722 0.0 0.0
0002b0 00 00 00 00 39 34 bc bb 00 00 00 00 20 50 75 3c
       0.0 -0.00574353 0.0 0.014972717
0002c0 aa 92 95 39 68 a2 db bc 79 7b bb bc 15 77 ab bb
       0.00028528768 -0.02681084 -0.022886025 -0.0052327015
0002d0 2e fb e3 3c 6d 28 af 3a ed af eb 39 1c 43 19 3c
       0.027829733 0.0013363488 0.00044953768 0.009354379
0002e0 00 00 00 00 8d 1c 4f 3c 9f 5f af ba 53 a2 dc bc
       0.0 0.012641084 -0.0013379938 -0.026932871
0002f0 f8 62 61 ba 00 00 00 00 00 00 00 00 00 00 00 00
       -0.00085978163 0.0 0.0 0.0
000300 00 49 93 bc 6e 92 7b ba b2 4d 57 bc 80 0a 26 bb
       -0.017979145 -0.000959671 -0.013141083 -0.0025335848
000310 36 a4 3b 3b a9 a3 9d bc 00 00 00 00 56 da 08 bc
       0.0028631813 -0.019243078 0.0 -0.008352837
000320 10 c3 0d bd 04 ef 64 bc 68 48 d3 ba 82 65 2b bc
       -0.034609854 -0.013973001 -0.0016119601 -0.010461213
000330 8f 08 a9 bb e1 8d 42 bb d2 d0 2d bc 9e 5d 14 3d
       -0.005158491 -0.0029686617 -0.010608869 0.036222093
000340 ad 8b 84 3c 00 00 00 00 e9 d8 1b 3c 35 df 9a 3c
       0.016179884 0.0 0.009512165 0.018905262
000350 e9 7f b9 bb 2f fb ce bb 00 00 00 00 c0 f6 19 bc
       -0.005661 -0.0063165645 0.0 -0.009397209
000360 f2 9a 8a 3b 4b 27 58 bc 39 e3 73 bc 34 37 83 3c
       0.0042298967 -0.013192962 -0.014885717 0.016017534
000370 f3 aa 27 bc 58 19 9b 3a 66 f2 95 3a 57 7b 01 bc
       -0.010233629 0.0011833115 0.0011440038 -0.007902942
000380 8f fe 4d 3c 00 00 00 00 81 8f da bb 00 00 00 00
       0.0125728985 0.0 -0.006669939 0.0
000390 8c 79 e9 3b 01 1e 57 bc c9 f7 72 bb 00 00 00 00
       0.007125085 -0.013129712 -0.003707396 0.0
0003a0 00 00 00 00 c1 73 9b bc 86 35 56 39 a5 6d 76 3c
       0.0 -0.018976094 0.0002042857 0.01504079
0003b0 00 00 00 00 be 88 c1 bc 7c 7b 8b 3b c0 50 e9 3c
       0.0 -0.023624774 0.004256664 0.028480887
0003c0 4b 7f 1c bc 0c 61 ae bb 5e 05 3c 3c ae 40 f3 3b
       -0.009551833 -0.0053216275 0.011475889 0.007423482
0003d0 c3 31 7a bc c9 d1 d6 bb 00 00 00 00 0a cc 59 bc
       -0.015270653 -0.00655577 0.0 -0.013293276
0003e0 00 00 00 00 50 2b f1 bb b2 3e 13 bc 00 00 00 00
       0.0 -0.0073598996 -0.008987116 0.0
0003f0 00 00 00 00 98 f8 99 bb d3 6c e9 bc c1 71 03 bb
       0.0 -0.004698824 -0.028494274 -0.0020056816

weight f4 [128, 256]
000000 e3 f4 9f 3d 4c 28 74 3d 65 18 5a 3c bd d5 84 bd
       0.0781038 0.059608743 0.01331148 -0.0648608
000010 34 08 70 3b 22 f5 86 bc fe b9 3c be b5 b9 6b be
       0.0036625983 -0.01647431 -0.18430325 -0.2302006
000020 c1 12 66 bd ea 2e e9 bc 04 49 d1 bd 92 86 87 3d
       -0.05617023 -0.028464753 -0.10219005 0.06617464
000030 81 d8 a9 3d 88 dc 2c 3d ce 72 f8 3d cd 95 a9 3d
       0.08293248 0.042202502 0.12131272 0.08280525
000040 65 ad e2 3d 72 4d b8 be aa 5e e1 3d 38 06 32 bd
       0.11068229 -0.35996586 0.11004384 -0.043462962
000050 30 88 b3 3c cd c9 02 3e 40 19 2b 3d 8c 39 55 3c
       0.021915525 0.12772293 0.041772127 0.0130142085
000060 9f 25 e1 bb b0 de e3 bc 22 3d 2e bd 36 50 11 be
       -0.00687094 -0.027816147 -0.04253877 -0.14190754
000070 7b 12 45 bd a6 bd 90 bd 3a 7a 50 3e 79 a0 9b 3c
       -0.048113327 -0.070674226 0.20359126 0.018997418
000080 80 14 bf bb f2 a0 36 bd 2e 81 90 bd c2 98 e3 3d
       -0.005831301 -0.044587083 -0.07055889 0.111131206
000090 02 b3 d7 3d 7c 8b a1 3d 20 5b 7f be 6e 13 fd bd
       0.1053219 0.07887933 -0.24937105 -0.123572215
0000a0 04 c4 c9 3d dc cb 9d 3d a0 74 49 3c cf 04 28 3d
       0.0985184 0.07704899 0.012295872 0.04102021
0000b0 e2 74 2d bc 0a f9 9f 3b 78 06 bb bc 0e 44 91 bd
       -0.010586949 0.0048819827 -0.022830233 -0.070930585
0000c0 27 f6 0f bd 17 64 61 be bc b0 df 3c 33 97 8a 3d
       -0.03514686 -0.22010837 0.027305953 0.0676712
0000d0 08 47 06 bd 84 f9 d2 3d a2 db f9 bd 1d e7 46 3e
       -0.032782584 0.103014976 -0.12200095 0.194241
0000e0 35 61 97 bd 40 43 77 3b 6a 67 88 3d 57 08 a8 bb
       -0.07391588 0.0037729293 0.0666035 -0.0051279473
0000f0 c3 9a 83 be d0 e0 81 bd e0 db b2 bb 8b be 65 3d
       -0.2570401 -0.06341708 -0.00545834 0.05608992
000100 48 49 15 3d ff ec c6 bc fc fb 9e bd 28 2d d7 3c
       0.03644684 -0.02428293 -0.07762906 0.02626665
000110 87 ee bc 3d d8 dc 92 bc 99 ca 3c bc 32 b2 c0 3d
       0.09225183 -0.017927572 -0.011522912 0.09408988
000120 e8 b4 76 3d 87 96 65 bd 25 1e ad bd 2c 08 87 bd
       0.06023112 -0.056051757 -0.08453015 -0.065933555
000130 44 8d 90 bd 23 2d fb 3d b0 ca 34 bf a4 44 70 3d
       -0.07058194 0.122644685 -0.70621777 0.05865921
000140 1d 55 e8 3d 40 b9 69 bb 9e e2 7c bd ec ef b4 bc
       0.11344359 -0.0035663396 -0.061739556 -0.02208706
000150 31 9f d6 bd d0 9a 9e 3d 44 cd f5 bd dc 51 c9 bd
       -0.10479582 0.07744372 -0.12002042 -0.098300666
000160 e0 e3 08 bd b4 e1 c0 bd e7 48 19 3e 6b 7a 11 bd
       -0.033420444 -0.094180495 0.14969216 -0.035517137
000170 e6 ba 08 bd f0 95 a7 bd fe 7b 60 3e a5 8f c9 3d
       -0.033381365 -0.08182895 0.219223 0.09841851
000180 58 84 c4 3c f8 c4 80 3c bb 28 8a 3d 80 93 cb bd
       0.023988888 0.015718922 0.0674605 -0.09940243
000190 55 04 85 bd 48 5d 7b bb 82 7c 13 3e 4c 40 c4 3d
       -0.06494967 -0.003835516 0.14402965 0.09582576
0001a0 e8 90 0f 3d 33 0d b7 bc cb a7 71 3d aa 97 11 be
       0.035050303 -0.022345161 0.05899791 -0.14218011
0001b0 02 22 ec bd cd 6e ba bc c8 54 df bd 16 83 7e 3d
       -0.11529924 -0.022757912 -0.109048426 0.062136732
0001c0 33 10 6c 3d 7e 4e af bd 80 c7 e9 bd f9 08 87 3d
       0.057632636 -0.08559893 -0.11415005 0.06593508
0001d0 90 8c 95 3d 4c 26 d4 3c b0 8d 45 3d 31 76 66 bd
       0.07302201 0.025897168 0.048230827 -0.05626506
0001e0 4d c4 57 bd b1 61 62 3d f8 00 d6 bd 83 04 9a 3d
       -0.05267744 0.055268947 -0.104494035 0.07520392
0001f0 49 29 e4 3d 26 e7 b1 3d df a1 9b bd bb 7e fa bd
       0.11140687 0.08686666 -0.07599234 -0.12231203
000200 5d 82 f7 bd 78 57 1b be 4e f5 95 3d 6b 87 56 be
       -0.12085412 -0.15170085 0.07322179 -0.20950095
000210 39 a0 18 be 03 96 0d bd 87 25 8d 3e a9 3e 3b be
       -0.1490487 -0.03456689 0.27567694 -0.18285622
000220 cf 40 e1 3c 5e ca 91 3d 48 51 55 3d 99 29 8d 3d
       0.027496723 0.071186766 0.05207947 0.068927
000230 5b 42 7a 3d e0 f7 2a bc 88 20 10 3c 22 87 e0 bd
       0.061098438 -0.010435075 0.008796819 -0.109632745
000240 90 9e 1a bd 70 ec 8a 3e f3 15 21 3e dd 37 26 b8
       -0.037748873 0.27133512 0.15731029 -3.962951e-05
000250 07 65 06 bd 69 3b 07 3d 8d c8 5c bd c6 aa db bd
       -0.03281119 0.033015642 -0.053902198 -0.10725932
000260 dd 1b c8 ba 7c 7f 52 bd f4 58 07 3d 2c a6 30 bd
       -0.0015267093 -0.05139111 0.033043817 -0.043127224
000270 d6 35 97 bd 49 a9 54 bd 00 ff fa 3c cc bc c7 3d
       -0.07383315 -0.051919255 0.030639172 0.09752807
000280 cc 01 8f bd 07 fa 87 3e ea 07 f9 bd 7b bc 2a 3e
       -0.069827646 0.26557943 -0.121597126 0.16673462
000290 ac 8f 18 bd 38 c7 22 3d 0a 85 d3 3d eb b7 1c bc
       -0.03724639 0.03974077 0.103281096 -0.009565334
0002a0 ef be e4 bc 1b 09 1a bd ee 4b a1 bd 0c 8b ef bd
       -0.027923075 -0.03760634 -0.078758106 -0.11696443
0002b0 a4 e4 4c 3d 56 15 da 3d b0 c5 f8 bc 63 fa 3d bd
       0.050022736 0.10648601 -0.030367702 -0.046381366
0002c0 36 0d 9c bd 0d a8 4b bd c5 10 9a bc ca 6c 2e 3d
       -0.07619707 -0.049720813 -0.018806824 0.042584218
0002d0 14 50 b0 be d7 5c 32 3e 63 89 a9 bd ae 84 45 bd
       -0.34436095 0.17418228 -0.082781576 -0.048222236
0002e0 6c 4a c4 bd c8 7f 4f bd c1 e6 0e 3e 9d 93 ab be
       -0.09584507 -0.05065897 0.13955213 -0.33511057
0002f0 1b ee 5f bd 56 ac cd bd f0 68 f3 3c f2 d1 eb 3d
       -0.054670434 -0.10042636 0.029713124 0.11514653
000300 f4 31 80 3d d5 24 af bb c6 90 99 bd 44 db ea 3d
       0.06259528 -0.005344967 -0.074983165 0.11467603
000310 79 4f 0f 3e b4 d6 7b 3d 50 5b 4b 3d 40 79 22 3e
       0.1399516 0.061484054 0.04964763 0.15866566
000320 7d f2 40 bd 28 5b af bd 29 0e 14 bd 33 47 24 bd
       -0.047106255 -0.085623085 -0.036146317 -0.040106963
000330 6d b6 90 3c 48 db 31 3e ea de 8c bd df ce c1 3a
       0.017665112 0.17368805 -0.06878455 0.0014786384
000340 58 60 8c bd 1e c6 ce bd f0 47 6f be f1 6c c9 3e
       -0.068543136 -0.100963816 -0.23367286 0.39340928
000350 d1 fa 85 3d bb 41 8b be 06 80 f3 3d 06 6a 0d 3c
       0.0654198 -0.27198586 0.11889653 0.008631235
000360 bc 42 8c bd f0 bd 02 3e af 4c 50 bd 18 b6 8b 3e
       -0.06848666 0.12767768 -0.05085438 0.27287364
000370 82 8d 9d 3d 4e f1 a6 be 23 f8 d0 bd 0a 81 90 3a
       0.07693006 -0.32605976 -0.10203578 0.0011024785
000380 ae 56 df bc 6a 09 d3 bd ad 82 c5 3d d0 94 2b bd
       -0.027263012 -0.1030453 0.09644065 -0.041889966
000390 41 e9 38 3d a3 4a 94 bd 71 c7 0e bd ce c1 f7 bd
       0.045144323 -0.07240798 -0.03485817 -0.12097512
0003a0 8c 0d 27 bd 8c 34 8b 3c 42 d0 5b 3e 16 02 08 3e
       -0.040784404 0.01699283 0.21466163 0.13282046
0003b0 dc 77 69 bd a0 9c 54 bd be b4 41 bd a9 e6 ee 3c
       -0.056999072 -0.05190718 -0.04729151 0.029162722
0003c0 d4 59 bb 3a b5 e6 e1 3d 43 f5 bc 3c 52 f8 ae be
       0.0014293739 0.11030332 0.023066169 -0.34173828
0003d0 41 94 b5 bc d9 d8 13 3e f0 65 cc 3c 5c 69 dc 3d
       -0.02216542 0.1443819 0.024950951 0.10762283
0003e0 00 5b 0e 3c 2f c7 b9 3d 04 90 f3 bd 60 1d 69 bd
       0.008688688 0.090711944 -0.11892703 -0.05691278
0003f0 04 72 b3 3d 1f 24 14 bd 40 24 0f 3d 8c c2 fe 3d
       0.08761981 -0.03616726 0.03494668 0.124394506

bias f4 [128]
000000 46 cb 12 bc c4 4b 0e 3d 72 f4 a1 bc 2d ce 9c bc
       -0.008959597 0.034740224 -0.01976988 -0.019141281
000010 44 c4 83 bd 13 1b ae 3d 88 03 5a 3d 5a 99 93 3b
       -0.06433919 0.08501258 0.053226024 0.004504365
000020 09 d1 29 3d a9 76 59 3d e7 d3 6a 3c 90 93 a3 3c
       0.041459117 0.05309168 0.014332748 0.019967824
000030 1d f5 5a bd f9 c0 a7 bc ff 9a 45 bc b1 4e 5f bd
       -0.053456414 -0.020477759 -0.01206088 -0.054518405
000040 7e c9 cb ba dd d9 6d 3d 38 7f 6f bb b8 ae c2 bd
       -0.001554772 0.0580691 -0.0036544334 -0.09505981
000050 f2 01 5c bd 7c 53 81 bc b0 73 77 bb 7a 55 12 be
       -0.053712793 -0.015786879 -0.0037758164 -0.14290419
000060 81 ab 07 bd 79 34 66 bc 06 5e a8 bd 40 d7 da bc
       -0.033122543 -0.014050596 -0.082210585 -0.026713967
000070 8d a4 8c bd 24 10 97 3c 0e c8 5d be c1 29 c7 ba
       -0.06867323 0.018440314 -0.21658346 -0.0015194939
000080 1b 9a b9 bc 36 ab 48 bd 19 93 ed bc 8a 62 36 3d
       -0.022656491 -0.048991404 -0.029000806 0.044527568
000090 5b ef 15 bc 25 93 c9 3b 2e 65 a6 bd 8c fe 9e 3c
       -0.009151305 0.006151574 -0.08124767 0.019408487
0000a0 68 43 43 bd 38 52 53 3d 59 89 ad bb d5 96 8b bd
       -0.047671705 0.05159208 -0.005295914 -0.06815878
0000b0 22 f4 86 3c a1 c2 52 3d 7d c1 df 3b df 04 0f bd
       0.016473833 0.051455144 0.0068284855 -0.034916755
0000c0 c3 cc c4 bd 85 f8 8f 3d bd d0 fa 3c 5b 01 2a bc
       -0.09609368 0.07029823 0.030617112 -0.0103763
0000d0 ec b2 33 3d c9 20 96 bd 84 97 99 bc a5 48 aa b9
       0.043871805 -0.07330472 -0.018749006 -0.0003247905
0000e0 3f f9 a6 bc 33 19 3e bc ee aa 2a 3d 7f 63 e5 bd
       -0.020382522 -0.011602688 0.041666918 -0.11200618
0000f0 fa f5 85 3d 94 54 c9 3c fd 22 ad bd b7 72 90 bd
       0.06541057 0.024576463 -0.08453939 -0.0705313
000100 90 1b 86 bd f2 64 1f 3b 5a ae 23 3d 1f 87 32 3c
       -0.06548226 0.0024321643 0.039961196 0.010896473
000110 c3 db 68 bd 39 8e 9c 3c 1e 98 94 bc 45 b3 71 3d
       -0.056850206 0.019110786 -0.018138941 0.059008855
000120 a5 59 ae bd 99 5c 0b 3d a0 2b 94 bb c8 11 6b bd
       -0.08513192 0.034023855 -0.004521802 -0.057390004
000130 55 03 c9 3d 5a 7c fb bc 68 e8 38 bd 30 87 1a bc
       0.09815089 -0.030698944 -0.045143515 -0.009431645
000140 8d 73 f6 bc f7 97 e8 3d e6 ba 37 bc 7a 55 1b bc
       -0.030084396 0.1135711 -0.011213994 -0.009480828
000150 ae f1 29 ba 90 06 b8 3c 3b bb a8 3d e4 7d 01 3d
       -0.00064828515 0.022464067 0.082388364 0.0316142
000160 c0 52 7f 3c ae b9 85 bc d2 31 ac 3c cb cb c2 3c
       0.015583694 -0.01632389 0.02101985 0.023778817
000170 59 d5 ad 3c d7 8c df bc d3 3b 19 3c 5d d9 10 bd
       0.021219896 -0.027288837 0.009352642 -0.035363544
000180 80 21 2c 3d f0 e8 08 3d 02 63 4c 3d 97 5d 2c bd
       0.042024136 0.03342527 0.04989911 -0.04208144
000190 4d 22 03 3d 3d 31 88 3d 2a 51 92 bc c0 63 18 3d
       0.032015134 0.066500165 -0.017860968 0.037204504
0001a0 8c 0e 90 ba 81 61 61 3c 97 c6 10 bc f2 16 e5 bc
       -0.0010990663 0.013756157 -0.00883641 -0.027965043
0001b0 79 1f d3 bb d7 29 29 bd 47 e7 e9 bd 84 c6 28 bd
       -0.006442961 -0.041299667 -0.11421066 -0.041204944
0001c0 9c 1f 05 bd 44 99 11 bd 7e a8 f3 3a 5f 7a cf bc
       -0.03250085 -0.035546556 0.0018589643 -0.025326906
0001d0 81 b6 2f bd 79 25 80 bd 45 6c 87 bd 59 43 e7 bc
       -0.04289866 -0.06257147 -0.06612448 -0.028230356
0001e0 75 74 b5 3c c3 81 82 3b 79 16 43 3d 4a 48 9c bb
       0.022150258 0.003982754 0.047628853 -0.0047693597
0001f0 c0 34 82 bd aa 18 49 bc 96 76 e6 bd ca 98 0d 3d
       -0.063577175 -0.012273947 -0.11253087 0.03456954

weight f4 [64, 128]
000000 1f 00 13 3e 73 5f 47 be 38 63 eb bd 6e 30 f0 3d
       0.14355515 -0.19470005 -0.11493534 0.11727987
000010 33 5a 2b 3d ba b5 6e be 30 19 98 be 5e 04 63 be
       0.041834068 -0.2331151 -0.29706717 -0.22169635
000020 d9 67 f4 3d 02 46 72 bd 6f 6a 96 bd 6e b7 8e 3d
       0.1193387 -0.059148796 -0.07344519 0.0696858
000030 b2 31 81 3e 38 89 a3 3d 8e 75 1f be 04 3e 2c be
       0.25233227 0.07985157 -0.15572187 -0.16820532
000040 fd 03 a2 bd ca 6a b4 be cd 23 4f 3d 32 08 de 3d
       -0.07910917 -0.35237724 0.05057125 0.10841407
000050 e8 7a 00 3f b5 ed 76 be c8 c0 b4 bb d9 22 8a bd
       0.5018754 -0.24114116 -0.0055161454 -0.06744928
000060 c7 9e bd be 7f eb 8a 3d 94 68 27 3e b9 65 b6 bd
       -0.370352 0.067831986 0.16348487 -0.08906121
000070 97 70 ba be aa 5e fc bc e3 83 b5 bd 1e 54 2a be
       -0.36414024 -0.030806858 -0.08863046 -0.1663365
000080 9a 1e 77 3e 12 73 44 3c ba cd 06 be db 5e fd be
       0.24132767 0.0119903255 -0.13164416 -0.4948643
000090 53 a1 2f be 8e c2 94 be 9a e0 fc 3c 99 76 10 be
       -0.17151384 -0.29054683 0.030868817 -0.14107741
0000a0 b0 d0 ed 3e bf bf a6 bd 7e 84 a2 be a5 53 49 3e
       0.46448278 -0.081420414 -0.3174171 0.19660814
0000b0 41 8f a0 bc 98 10 81 be c1 ba 60 3d 51 da 86 bd
       -0.019599559 -0.25207973 0.054865602 -0.06584609
0000c0 0d e6 7c 3d 12 f3 a6 bd 95 44 9b be b8 03 71 bd
       0.06174283 -0.08151831 -0.3032576 -0.058841437
0000d0 29 31 ba bd 66 2a 59 3e f2 86 bd bd 29 9d f2 be
       -0.09091408 0.2120758 -0.092542544 -0.4738553
0000e0 4d a2 97 bd 5c 96 e8 3d 04 d8 ff 3d ab 74 2e be
       -0.07404003 0.11356804 0.124923736 -0.17036693
0000f0 cc 81 84 bd 8a 0f 8f be a2 5b 8d 3d b8 31 94 be
       -0.06470069 -0.27941543 0.06902243 -0.28944182
000100 67 c4 56 3d ba db 2c 3e 9c 72 5f be e6 7c 94 3d
       0.052433398 0.16880694 -0.21821064 0.07250385
000110 40 b8 b9 bd ac c3 a4 bd 43 c6 82 be fb 02 91 be
       -0.09068346 -0.08045134 -0.25541887 -0.28322586
000120 93 e0 a7 3c f8 74 13 be 41 ec 9d 3d 07 0a 79 3e
       0.020492828 -0.14400089 0.077110775 0.24320231
000130 7c 31 7c bc da ad 9c be e0 10 1c bf 71 79 fc bd
       -0.015392657 -0.30601388 -0.6096325 -0.123278506
000140 51 60 65 3d bb 54 85 be db 1c 54 be 1f b2 1d 3e
       0.056000058 -0.26041207 -0.20714132 0.15399979
000150 a1 b0 8c be b8 45 91 3e 0d 13 04 3d f2 f5 b0 3d
       -0.27478507 0.28373504 0.03224473 0.0864066
000160 79 45 b8 bd 7d 73 1c 3c 3e 1b 00 3e da 7d 22 3f
       -0.08997626 0.009549019 0.12510392 0.63473284
000170 89 9e dd 3d 7f be 08 be 62 11 6a 3e f7 0f 08 3e
       0.10821254 -0.13353918 0.22858194 0.1328734
000180 5c b9 e7 3d 61 a1 39 bf ef d2 1a 3f 7f 4d 4d 3d
       0.11314651 -0.7251187 0.6047811 0.050122734
000190 3b 90 55 be 46 13 2b 3e f8 90 8a 3d 97 8f a4 be
       -0.20855801 0.16706571 0.06765932 -0.321408
0001a0 18 53 0b 3e 5e 16 5c bd 44 b3 68 3d e3 7c 8a be
       0.13605917 -0.05373227 0.056811586 -0.27048406
0001b0 48 18 94 bc ca e0 0d 3e fe 2f ee bd 95 dd 14 3e
       -0.018077984 0.13855281 -0.116302475 0.14537652
0001c0 fb e1 3c 3d 23 db 30 3c c5 8b 46 be 04 bb 2d 3e
       0.04611395 0.010794434 -0.19389255 0.16965872
0001d0 2b 59 2a be e8 a8 b8 3d c0 55 c7 bd 79 49 6a 3e
       -0.16635577 0.09016591 -0.097331524 0.2287959
0001e0 62 3c e0 be 39 44 73 3d 68 2e a1 be 48 e9 d3 3c
       -0.43796068 0.059391234 -0.31480718 0.025868073
0001f0 7a a0 a8 3d 82 37 2b bf d1 f1 99 be 0a a3 ce 3b
       0.082337335 -0.66881573 -0.30067304 0.006306057
000200 aa 4f 48 3e e9 4f f6 bd de fb ed 3d 59 34 98 bd
       0.1956164 -0.120269604 0.116203055 -0.074318595
000210 5c f3 78 bd 3a 42 c3 bd 84 4d be bb fd ad 73 be
       -0.06077896 -0.09534116 -0.0058075804 -0.2379684
000220 6e da 01 3e b2 66 88 3e ae 66 8f 3d b5 e8 c7 3d
       0.1268098 0.2664085 0.070020065 0.09761182
000230 0b 10 39 be 4b 6e fa 3d 76 dc 8f 3c e7 07 2f bf
       -0.18072526 0.12228068 0.017561179 -0.68371433
000240 cf bc 5a 3d 6b 8f 4d bd d1 cc 88 3e 54 3a b5 bc
       0.05340272 -0.050185602 0.26718763 -0.02212254
000250 47 de d7 bc 77 57 96 3d e6 d6 83 3e 01 59 b2 bb
       -0.026351107 0.07340901 0.25749892 -0.005442739
000260 7e c7 91 3d 64 a4 2d be 4b 6c 64 be 6f 52 85 bc
       0.07118128 -0.16957241 -0.22306935 -0.016274659
000270 f2 6e d4 bd 18 57 63 be 7f 8e 6a be 6d e3 5e 3e
       -0.10372724 -0.22201192 -0.2290592 0.21766444
000280 9e ec fe be 2c dd cb be a4 eb 85 3e 9c 73 5a 3e
       -0.497899 -0.39817178 0.26156342 0.21333164
000290 95 d9 b6 be ae aa 26 3e 92 b6 8a be ad be f9 3c
       -0.35712877 0.16276047 -0.27092415 0.03048643
0002a0 1d 84 b2 be 00 0d fa 3c 32 9b ea bc e7 8a 94 3d
       -0.3486642 0.030523777 -0.028638456 0.07253056
0002b0 fa 1c 96 3d bf e1 4c 3e a3 6b 90 3e 6e 70 31 3e
       0.073297456 0.2000799 0.2820712 0.17328045
0002c0 3e 08 fb 3c dd 82 b1 3d 7e 21 6e 3e 51 be 58 be
       0.030643579 0.08667538 0.23254964 -0.2116635
0002d0 6c fb ba bc 19 48 d0 be 67 af 27 3e df f0 91 3e
       -0.022824965 -0.40680006 0.16375504 0.28504083
0002e0 f5 11 5f be cd d7 bc 3d 0d 48 bc 3d f2 64 a2 be
       -0.21784194 0.09220848 0.0919343 -0.3171764
0002f0 ec fd b4 3d 91 13 fa bd 3e fe 99 3c e9 12 3c bf
       0.08837494 -0.12210763 0.01879799 -0.73466355
000300 b6 d8 6a be 01 5a 11 3d 86 33 81 bd 3b 87 0a be
       -0.22934231 0.035486225 -0.063086554 -0.13528149
000310 9d 40 6b be e8 14 13 be da 23 fb be 20 17 50 bd
       -0.22973867 -0.14363444 -0.4905079 -0.050803304
000320 0b 63 c5 bd 23 54 78 bd 8f 56 39 3e bc 5f 71 3d
       -0.096380316 -0.060627114 0.18099426 0.05892919
000330 ab df 4f 3c 57 9b 37 be 52 3e af be e2 32 df 3d
       0.012687604 -0.17930351 -0.34227234 0.10898377
000340 14 36 b9 3d 01 c3 45 3e 31 d0 a9 3e 28 87 81 bd
       0.09043518 0.1931267 0.3316665 -0.06324607
000350 f6 13 f3 3c b0 f2 40 3d 77 43 1e 3e e5 68 42 bd
       0.029672604 0.047106445 0.15455423 -0.047463316
000360 fb fb f3 bd 3d 8e 1f bd 7b 8e 6f 3e 81 8b 85 bd
       -0.11913296 -0.03895401 0.23394196 -0.06520749
000370 f6 03 fe bd 58 fd d6 3d 76 b6 9e 3d 55 af af be
       -0.12403099 0.1049754 0.077496454 -0.34313455
000380 55 8c 36 be 24 b0 93 3e 0e 6d 30 3e 7c 7b fa be
       -0.1782697 0.28845322 0.17229101 -0.48922336
000390 4a 4e 0a 3e 9a 16 17 3c 99 02 c3 bc 47 c4 80 3d
       0.13506427 0.009221697 -0.02380495 0.06287437
0003a0 c6 24 39 be f9 b5 e6 bb c4 3b 91 3d 70 3d 68 3e
       -0.18080434 -0.007040736 0.070914775 0.22679687
0003b0 49 d4 95 3d 3d 0a c3 bd 56 1d c3 bd da 65 05 3e
       0.07315881 -0.09523437 -0.0952708 0.13027135
0003c0 de 20 4a 3e 4f 0f 0e 3e 28 2d 19 3e 1a 60 d3 bd
       0.197391 0.13873027 0.14958632 -0.10321064
0003d0 44 7e 09 be 3e 98 c7 bd ea 54 ee 3d 78 2a 99 3b
       -0.13427073 -0.09745835 0.1163729 0.004674252
0003e0 f0 ef bb 3d 97 ab 2f be ed 37 ef bd b3 7d bd bc
       0.09176624 -0.171553 -0.11680589 -0.023131227
0003f0 57 35 cb bd 96 50 c4 3d ee 37 84 3d 53 81 6a 3b
       -0.09922283 0.09585683 0.0645598 0.003578265

bias f4 [64]
000000 a1 82 f8 bc ce 4d c4 3d 79 00 10 3e e1 40 e4 bd
       -0.030335726 0.095851526 0.1406268 -0.11145187
000010 23 f3 ae bc a3 d5 60 bb f2 2f a9 bd f2 42 34 3d
       -0.021356171 -0.0034307025 -0.08261098 0.044009157
000020 31 98 a4 bd ed f8 eb 3c 20 49 a0 3d 8b 9e c1 bd
       -0.08036841 0.02880522 0.078264475 -0.09454068
000030 af ba 86 3d d3 bc d1 3d 27 cc af 3d 51 56 0d bd
       0.06578576 0.102410935 0.08583861 -0.034506146
000040 14 48 5d 3d 20 be fc 3c ca e0 c5 bd 83 36 77 bd
       0.054023817 0.030852377 -0.09662016 -0.06035472
000050 09 91 a9 bc 3b fe 11 bc c4 a1 2b bd 80 42 27 bd
       -0.020699041 -0.008910711 -0.04190232 -0.040834904
000060 1f 1d 3f 3d 9a f6 9f bb 69 b8 94 3d 7a 99 21 3e
       0.04665863 -0.004881692 0.07261736 0.15781203
000070 4a 13 da 3d 2a 97 18 3e 8c 59 c2 3d 50 84 4e 3e
       0.1064821 0.14901415 0.09489736 0.2016766
000080 20 4b a9 3d 4c 21 0e bd 72 d8 f0 3c 44 d8 14 be
       0.08266282 -0.034699723 0.029400084 -0.14535624
000090 2d 0b 77 3e 9c bd 8e bb 20 5a 91 bd c6 1b 03 3e
       0.24125357 -0.0043560993 -0.07097268 0.12803563
0000a0 ea 18 e6 3d cb 61 7d 3d ec d2 2d 3d ee bc a8 bd
       0.11235221 0.06186084 0.04243748 -0.082391605
0000b0 b6 28 a7 bd 98 f4 f1 bc 25 f1 1b bc 34 1b e7 3b
       -0.08162062 -0.029535577 -0.009517943 0.0070528034
0000c0 66 cf b4 3d 18 cd 7b 3d 96 b7 ee 3b 09 42 d2 bd
       0.088286206 0.06147489 0.0072850687 -0.102665015
0000d0 ad 02 82 3d ce 32 9b 3d 02 52 dd 3c ff 8a de 3d
       0.063481666 0.075780496 0.027016643 0.10866355
0000e0 6c 96 10 3c be 7e a2 3d 60 e7 1d be 12 83 2d bd
       0.008824926 0.079343304 -0.15420294 -0.042361327
0000f0 23 b6 9e 3d b9 6e ed bc e4 d3 11 bc dd 0d 63 bc
       0.077495836 -0.02898346 -0.008900616 -0.013858286

weight f4 [6, 64]
000000 0e 12 fb 3e 54 3f a4 be 3d 4a bb be 7a a3 40 3f
       0.49037212 -0.32079566 -0.36580077 0.75249445
000010 e7 26 8c be 66 96 8f 3e c6 0e b4 3e b4 22 4e be
       -0.2737343 0.28044432 0.3516752 -0.20130426
000020 88 7c 05 be bb bd 40 3f d5 bc 95 bd e3 f7 66 3f
       -0.13035786 0.75289506 -0.073114075 0.90221995
000030 6b fb 58 3c c8 4d e4 be b9 36 a0 be 8a 0d 9d 3e
       0.013243536 -0.44590592 -0.3129175 0.30674392
000040 ce c4 d8 3d 47 5f 47 be 2c c2 f6 be 8b f5 be 3e
       0.105844125 -0.19469939 -0.48195016 0.3729671
000050 4f 9a 87 3f 54 98 01 bf 91 6d 13 be 94 9c 24 3f
       1.0593966 -0.5062306 -0.14397265 0.6430142
000060 72 b2 79 bd 74 7a a7 bd 2b 9b 82 be 29 ce 23 be
       -0.060961194 -0.08177653 -0.2550901 -0.15996613
000070 a5 64 33 be b8 68 ea bd 8f 3e b3 3d 61 91 25 bf
       -0.17518862 -0.11445755 0.087521665 -0.64674956
000080 45 06 57 bc d4 2d f2 3d db d5 f1 3e 79 cc 33 3f
       -0.013124053 0.11825147 0.4723347 0.70233876
000090 2c 76 2e bf 25 a3 cf bd b7 bf c7 3d dc a7 75 be
       -0.68149066 -0.10138539 0.097533636 -0.23989815
0000a0 4e bc 5b bd 68 1a 03 bf 76 44 c3 be 85 be ef 3d
       -0.05364638 -0.5121217 -0.3813817 0.117062606
0000b0 48 fe 48 bc 03 a1 1e bd 87 6a 96 3d 43 a9 2c be
       -0.012267657 -0.03872777 0.07344537 -0.16861443
0000c0 e5 3c ab bf 12 e9 88 3e cd ea 21 40 2d 90 1c 3e
       -1.3377959 0.2674032 2.529956 0.15289374
0000d0 b1 cb ca bd 1a e3 a6 be b8 77 6e 3f 01 74 a4 be
       -0.09902132 -0.3259514 0.93151426 -0.32119754
0000e0 b7 d3 9a be 88 42 65 be 78 0f 47 3f b1 f3 93 3e
       -0.3023965 -0.22388661 0.7775798 0.2889686
0000f0 45 f3 28 be c0 af 58 3e 20 9e ab bf b7 bf 5b bf
       -0.1649905 0.21160793 -1.3407631 -0.8583941
000100 d4 12 47 3f f1 0c 61 be a2 fd d2 bc 2c 21 25 3e
       0.77763104 -0.21977593 -0.025755707 0.16125935
000110 46 45 99 bf 97 ba 8e 3f 1a df af 3e bd b1 e0 be
       -1.1974266 1.1150693 0.343499 -0.43885604
000120 fc bb 0a bd 84 78 e3 3f 38 ff 86 be a0 c2 21 3f
       -0.033870682 1.7771153 -0.2636659 0.631876
000130 02 49 32 3f cd bc 13 bf bc bc 86 be d5 23 a6 3f
       0.6964265 -0.5770996 -0.26315868 1.2979685
000140 43 b6 0b bb ae 77 3b 3e da 4f 51 be ff 62 26 3f
       -0.0021318353 0.18307373 -0.20440617 0.64994806
000150 7c 4b 98 3f 91 bb 39 bf 6b 3f a2 be 9e b8 10 3f
       1.1898036 -0.7255183 -0.3168901 0.56531703
000160 40 ce a6 3e cc 94 4d 3d 73 ed 8c be 7b a8 72 be
       0.3257923 0.050190732 -0.2752491 -0.23697083
000170 0e a3 82 be ee 7d 57 be 25 4e 76 be a3 21 d2 be
       -0.25515026 -0.21044132 -0.24053247 -0.41041288
000180 59 aa 4d be 5e 63 ac 3e ff 6d 35 3f d7 d2 30 3f
       -0.20084514 0.3366956 0.70870966 0.69071716
000190 44 ad 8a be bb 4f 43 3f 0d 63 5b 3d 93 0c a0 be
       -0.27085316 0.76293534 0.05356126 -0.31259593
0001a0 97 25 84 be 0a 12 0d bf 9f a2 4b bf d0 62 ce 3e
       -0.2580993 -0.5510565 -0.79545015 0.40309763
0001b0 cf 9e 26 be 56 ad 30 3e 61 f3 86 3d 43 ea 39 be
       -0.16271518 0.17253622 0.065893896 -0.1815577
0001c0 4f 5e 1a bf ee 92 f5 3e 64 9a 87 3f e2 54 e9 3d
       -0.60300153 0.4796366 1.0593991 0.11393143
0001d0 d4 c1 50 bd 29 4e 6b be 2c a1 c1 3f 08 5a f1 be
       -0.0509661 -0.22979034 1.5127311 -0.47139
0001e0 bf 5b 47 be 0d e4 3d 3c 53 de 99 3e 61 21 fe 3e
       -0.19468592 0.011590016 0.30052432 0.4963484
0001f0 98 03 aa be f5 3d 70 3c 5f ca 92 be aa e6 e9 be
       -0.33205867 0.014663209 -0.28670022 -0.45683795
000200 b9 88 10 3f db 3e bb be 8d 78 2c be 86 ec 2b 3e
       0.5645862 -0.36571392 -0.16842861 0.16789445
000210 50 87 62 3e 2e 6c 4c 3f e6 3a bc 3e f7 e9 17 be
       0.2212193 0.7985257 0.36763686 -0.14835344
000220 76 cf 7b bc a6 fb 1e be 41 e5 3f 3e 25 51 11 3f
       -0.015369287 -0.15525684 0.18739797 0.5676444
000230 9b 4a bc 3f 1d 45 69 be 16 62 10 be f9 05 b9 3e
       1.4710268 -0.22780271 -0.14099917 0.3613737
000240 80 ab ee be 58 ea b1 be 3e 3b fe bc e9 d2 59 3f
       -0.4661522 -0.34749103 -0.031034108 0.8508745
000250 1f 86 a0 3f fa 59 59 bf ae 0b 80 3e f7 3d 83 3f
       1.254093 -0.8490292 0.2500891 1.0253285
000260 5f 2c 35 bf 96 37 b8 3e 6c fa 89 be 0f 28 b4 be
       -0.7077083 0.3597991 -0.2694887 -0.35186812
000270 a2 ed c2 be 09 3e 9f be 9a 7c 74 bc 56 1b b4 be
       -0.38071924 -0.31102017 -0.014922285 -0.35177106
000280 55 b0 04 be 4e 4c 9d 3e 02 26 5f 3f e4 c3 65 3f
       -0.1295789 0.30722278 0.8716737 0.8975203
000290 07 24 40 be 45 39 02 be b3 51 72 bf 26 26 b7 be
       -0.18763743 -0.12717159 -0.94655913 -0.35771292
0002a0 43 38 2f be 8e 7c d4 be bb 3c ae 3c b9 84 c2 3e
       -0.17111306 -0.41501278 0.021269193 0.37991884
0002b0 86 ac c1 be c6 38 01 bd ca b7 2c be 59 e6 34 3d
       -0.37826937 -0.031548284 -0.16866985 0.04416499
0002c0 5e ca 0c bf f9 e1 04 3f 8a 57 95 3f 02 0b d2 3e
       -0.5499629 0.51907307 1.166734 0.41024023
0002d0 af 83 d0 be e6 8c 0c 3f cf 2e 7a 3f a4 7d 1d bf
       -0.40725467 0.54902494 0.97727674 -0.6151984
0002e0 d4 76 8c be 09 67 8b be 30 4d 80 3e bc 39 20 3f
       -0.2743441 -0.27227047 0.2505889 0.62588096
0002f0 64 58 e6 be a8 4c b7 3e c5 a0 e3 be 88 88 2f be
       -0.44989312 0.35800672 -0.44458595 -0.17141926
000300 7f a6 28 3f 5b f7 97 be c3 19 51 be af e0 af 3e
       0.6587905 -0.29680905 -0.20419984 0.34351107
000310 fe db ac be 01 42 04 3f ad 29 c3 3e 87 55 1b be
       -0.3376159 0.51663214 0.38117734 -0.15169345
000320 65 cf ec 3e 19 89 05 be f7 22 29 be ee a7 3f 3f
       0.4625198 -0.1304058 -0.16517244 0.74865615
000330 3c 8c b3 be f4 57 18 be e7 3e d7 be 4c 03 07 3e
       -0.35067928 -0.14877301 -0.42040178 0.13184851
000340 a2 05 f7 3d 9d ba 10 3d 0f 08 19 3f 59 df 91 bc
       0.12061621 0.03533422 0.5977792 -0.017806696
000350 c1 9b 5d 3f 2e 06 12 bf 12 4e 5b be 2c 85 19 3f
       0.86565787 -0.5704068 -0.214165 0.5996883
000360 a6 64 4f be 8c e1 61 3c 11 8d 01 bf cd 46 5a bd
       -0.20253238 0.013786685 -0.50605875 -0.053290177
000370 2a cb 4c be 40 aa 73 be 2a c4 62 be a9 73 05 bf
       -0.19999376 -0.23795414 -0.22145143 -0.5212961
000380 3f fc 01 bf 65 68 97 3e 52 c8 04 3f de 6e 4e 3f
       -0.5077552 0.29571834 0.51868165 0.8063792
000390 e0 d2 c0 be 27 f9 a7 3d b1 e8 cd be f5 7a 83 be
       -0.37660885 0.08201819 -0.40216592 -0.25679746
0003a0 71 0d 2d be b8 38 bb bd e7 1c f9 bc 65 0c df 3e
       -0.16899659 -0.091416776 -0.03040929 0.43564144
0003b0 bd b1 12 3d 6d 52 8b 3e f0 99 39 3d f9 93 3f be
       0.035814036 0.27211323 0.045312822 -0.18708791
0003c0 8b df 52 bf a6 41 e9 3d c3 15 b1 3f 8e 7e bf 3c
       -0.8237235 0.113894746 1.3834766 0.023375776
0003d0 09 19 05 3e 07 0f 6c bf ff b4 8e 3f ae 0c cf be
       0.12997831 -0.9221043 1.1148986 -0.4043936
0003e0 87 a8 85 bd c2 cc ba 3d 00 98 b9 3e e8 ba 46 3e
       -0.06526285 0.09121086 0.3624878 0.19407237
0003f0 17 1d 52 be b6 02 f5 3d 9b 50 f9 be 39 25 44 bf
       -0.2051891 0.11963408 -0.4869431 -0.766193

bias f4 [6]
000000 ad 5c 89 bd f4 dd 01 be cd 4c 2e be df b5 2c be
       -0.067071296 -0.12682325 -0.17021485 -0.16866253
000010 e8 cb de bd 5c 8d a7 bd
       -0.10878736 -0.08181259
